results/checkpoint-12500/adapter_model.safetensors (safetensors, 591064 bytes, 89 tensors)

base_model.model.model.layers.0.self_attn.q_proj.lora_A.weight f4 [1, 2048]
0.0006247808 -0.0033536393 -0.0150425555 -0.008934858 -0.016500305 -0.018978912 0.011442673 -0.00966472
-0.025582165 -0.020005634 -0.009101741 0.023580337 -0.002787337 -0.018284233 -0.0076384945 -0.0037480881
0.021895044 -0.0066474522 -0.014857824 -0.016066127 0.02134107 -0.015741514 -0.0077488613 0.013777823
-0.01027786 0.01996052 -0.015678696 0.011149405 0.009044947 -0.003025943 -0.016357057 -0.0017322121
0.0064031277 0.00085601356 -0.025680048 -0.012545629 0.010607348 0.00930253 9.525447e-05 0.0032047664
-0.018364307 0.009069168 -0.013465014 -0.009885967 -0.0047504255 -0.0060237045 0.0062322114 -0.02508083
-0.0017412225 -0.011338979 -0.0047171507 -0.0046898997 -0.005308681 0.010634382 -0.012440002 0.0012858275
0.016926048 0.00089351804 -0.009937911 0.0127909165 -0.025423441 0.01669143 0.006228121 0.00034005748
0.015015442 0.017500529 0.009009874 -0.006529524 0.0072831553 0.021829726 0.0060199136 -0.012693446
0.008993455 0.02141297 0.015508028 0.0055109407 0.008546857 -0.017163575 0.0033318219 0.012314262
0.008849325 0.005211078 -0.0052179075 -0.020901319 0.016787328 -0.021331297 -0.02070517 0.01868693
0.015180318 0.009272701 -0.005719237 0.011056978 -0.008774479 0.009054551 0.006883719 0.013205869
-0.0014214028 0.02626434 0.024105625 0.0080899205 -0.008712599 0.0019224033 0.02251061 -0.01186877
-0.0027358108 0.0015929181 0.0052776444 0.014429764 0.01158166 -0.0030522253 -0.0025048465 -0.0034697382
-0.010533168 -0.008433875 -0.017757868 0.0077172355 -0.00062565884 -0.0010206259 0.0057176147 -0.011177313
-0.019885352 -0.0045984 0.0038817956 -0.015728438 -0.012890064 0.013256655 -0.008885606 0.014198702
0.018688591 0.012639191 -0.010230412 -0.005031855 -0.014000133 0.0032297953 0.014955487 -0.006281736
0.008877581 -0.004783879 0.01503935 -0.0016856831 0.0044593187 0.022418024 0.007636746 0.003115736
-0.008115418 -0.01816214 0.023521572 0.016325774 -0.0011949684 0.007269774 0.01308304 0.0129484385
-0.0009975149 0.0041307993 -0.011869117 -0.016952885 0.013869951 -0.013403254 0.019788168 -0.02743956
-0.017512923 -0.019222563 0.015812729 -0.016250191 -0.02351871 0.01425484 0.0013746724 -0.021140935
0.011943821 0.020232689 0.017311636 0.020023234 -0.009816794 -0.01113357 -0.009349831 -0.027120316
0.015454398 -0.0009904444 0.0152170835 -0.020299485 0.01664079 0.009766088 0.013567658 0.0123181725
0.014327487 0.012641711 0.0018754284 -0.00673382 0.020269252 -0.019595437 0.010168374 -0.0014840257
-0.004444225 -0.016591687 -0.00445998 0.0025940915 -0.00021767574 0.0018982386 -0.003357631 -0.019103574
0.014716102 -0.018420033 -0.019903943 -0.0083495295 0.009869132 -0.030369941 -0.02662682 0.007633318
-0.012429531 -0.00869295 -0.028911473 0.0033469808 -0.0057882406 -0.009570554 8.38914e-05 0.00154931
0.0013357241 0.017282417 -0.00957094 0.005718041 0.004334525 0.0064215865 0.008041532 0.009430111
0.0062869517 0.018087067 0.011835387 -0.0039612646 -0.017109543 0.012481463 -0.008436936 -0.015355673
0.018754153 -0.02098727 0.029804224 -0.032500405 -0.020996975 0.01465212 0.008916991 -0.015389935
0.0022350287 -0.01792332 -0.017090663 -0.022188278 -0.014293991 -0.02323526 0.019434216 -0.00039298323
-0.0037949854 -0.011128113 0.0024023429 0.013676325 0.00097409333 0.022141397 0.013355009 -0.010533913
00000000: 54c8 233a bbc8 5bbb 0d75 76bc 8363 12bc
00000010: a62b 87bc aa79 9bbc 0d7a 3b3c c658 1ebc
00000020: b091 d1bc dbe2 a3bc 781f 15bc 8d2b c13c
00000030: c1ab 36bb d1c8 95bc 564c fabb 7ca2 75bb
00000040: 3c5d b33c dfd2 d9bb 3b6e 73bc 1c9d 83bc
00000050: 78d3 ae3c 59f4 80bc 29ea fdbb 61bc 613c
00000060: 7864 28bc 3f84 a33c 9c70 80bc feab 363c
00000070: 4231 143c e64e 46bb 3cff 85bc 650b e3ba
00000080: 54d1 d13b 1966 603a f75e d2bc 2f8c 4dbc
00000090: 71ca 2d3c a469 183c 5bc3 c738 0f07 523b
000000a0: be70 96bc d996 143c 5d9c 5cbc c0f8 21bc
000000b0: 75a9 9bbb 7f62 c5bb 9437 cc3b 5076 cdbc
000000c0: bb39 e4ba 20c7 39bc 5492 9abb bbad 99bb
000000d0: 72f4 adbb d53b 2e3c 26d1 4bbc 3689 a83a
000000e0: 7fa8 8a3c fb3a 6a3a 9fd2 22bc fe90 513c
000000f0: d244 d0bc 77bc 883c 4415 cc3b be49 b239
00000100: 5403 763c 455d 8f3c 279e 133c 9ef5 d5bb
00000110: 89a7 ee3b 41d4 b23c b242 c53b 2cf8 4fbc
00000120: 4959 133c 416a af3c 6215 7e3c 1f95 b43b
00000130: 1e08 0c3c a09a 8cbc b25a 5a3b c2c1 493c
00000140: c2fc 103c b1c1 aa3b fbfa aabb 3e39 abbc
00000150: 9485 893c f9be aebc e49d a9bc 5515 993c
00000160: deb6 783c 87ec 173c 7068 bbbb 5428 353c
00000170: d5c2 0fbc 8a59 143c d290 e13b 6e5d 583c
00000180: 5d4e baba 5028 d73c 2979 c53c 968b 043c
00000190: 4abf 0ebc 27f9 fb3a 2c68 b83c 3b75 42bc
000001a0: 4a4b 33bb 76c9 d03a 17f0 ac3b d16a 6c3c
000001b0: 01c1 3d3c d807 48bb 5a28 24bb 8c64 63bb
000001c0: 4f93 2cbc 3c2e 0abc f378 91bc dde0 fc3b
000001d0: 4103 24ba 86c6 85ba d45a bb3b 0c21 37bc
000001e0: 9be6 a2bc 2dae 96bb b965 7e3b edd8 80bc
000001f0: d930 53bc 7132 593c ef94 11bc aca1 683c
00000200: d118 993c 9c14 4f3c 759d 27bc 42e2 a4bb
00000210: d060 65bc f9aa 533b dc07 753c 05d7 cdbb
00000220: 4673 113c 16c2 9cbb 9b67 763c 24f2 dcba
00000230: 7a1f 923b 01a6 b73c ab3d fa3b 6031 4c3b
00000240: 88f6 04bc c5c8 94bc 50b0 c03c a1bd 853c
00000250: 7ca0 9cba 4937 ee3b 3f5a 563c b025 543c
00000260: 0cbf 82ba a85b 873b af76 42bc c7e0 8abc
00000270: ca3e 633c 5299 5bbc cc1a a23c eec8 e0bc
00000280: 4377 8fbc a378 9dbc b289 813c 1f1f 85bc
00000290: 4faa c0bc 228d 693c 5a2e b43a c12f adbc
000002a0: 04b0 433c 06bf a53c 22d1 8d3c c407 a43c
000002b0: 9ed6 20bc 9469 36bc 0930 19bc 6d2b debc
000002c0: 7134 7d3c cdd1 81ba 1351 793c 1b4b a6bc
000002d0: 4452 883c f101 203c e24a 5e3c 29d2 493c
000002e0: d6bd 6a3c 2e1f 4f3c efd0 f53a 60a7 dcbb
000002f0: b40b a63c 9c86 a0bc 4099 263c a483 c2ba
00000300: dda0 91bb 4aeb 87bc 0625 92bb a201 2a3b
00000310: e33f 64b9 51ce f83a b30b 5cbb 197f 9cbc
00000320: ce1b 713c 9ce5 96bc 980d a3bc 77cc 08bc
00000330: 24b2 213c 62ca f8bc 7d20 dabc ea20 fa3b
00000340: 3ba5 4bbc e06c 0ebc c1d7 ecbc 0559 5b3b
00000350: 48ab bdbb d0cd 1cbc daee af38 3812 cb3a
00000360: 7713 af3a db93 8d3c 6fcf 1cbc 685e bb3b
00000370: a208 8e3b 2c6c d23b a1c0 033c c180 1a3c
00000380: c602 ce3b 542b 943c 36e9 413c 7fcd 81bb
00000390: 5029 8cbc 0d7f 4c3c 133b 0abc 5c96 7bbc
000003a0: 4fa2 993c 7fed abbc fd27 f43c 251f 05bd
000003b0: d901 acbc 720f 703c 9218 123c 1126 7cbc
000003c0: 8f79 123b edd3 92bc b801 8cbc 31c4 b5bc
000003d0: 5831 6abc df57 bebc 8134 9f3c 5109 ceb9
000003e0: 4ab5 78bb b052 36bc a070 1d3b aa12 603c
000003f0: 4c5a 7f3a e061 b53c f8ce 5a3c 6f96 2cbc

base_model.model.model.layers.0.self_attn.q_proj.lora_B.weight f4 [2048, 1]
-0.009713302 0.0032480445 -0.0043404936 -0.006130437 0.0041465783 0.010527533 -0.0071319155 0.008427288
-0.0048456346 0.0051539484 0.009853788 -0.0054958756 0.0047362805 0.0047464306 0.0030267925 0.0020882792
0.0033758841 0.003457127 0.0013728518 -0.0021388712 0.005389121 0.004432191 0.00068682106 0.004255987
-0.0065015443 -0.004582962 -0.0041429168 -0.0050440114 -0.0045312615 -0.00436153 0.004560969 -0.0046878005
-0.00030739384 -0.007253387 -0.005987952 -0.0042255605 -0.0037028552 0.0074655274 -0.010793498 -0.005886566
-0.010355914 0.010301478 -0.0039509833 -0.000748812 -0.0036816294 -0.002541454 0.0023470502 -0.0033145691
-4.4907814e-05 0.0027437746 0.0029999926 0.004949387 0.0013274758 -0.0060489583 -0.002583972 -0.0067957123
-0.0045078695 0.0054754433 0.0052168174 -0.0044498118 0.004934482 -0.004602938 -0.0047268285 -0.004645244
-0.00052972464 -0.0017409696 0.006435356 -0.0014924908 0.0046366244 -0.006822803 -3.79295e-05 0.004227247
0.0005029545 0.004323432 -0.00022824472 0.00086664624 -0.004211108 0.0047326186 0.0016433195 -0.0033341462
0.004101546 0.005593664 0.0071724467 -0.0061292257 -0.006267963 0.006256761 0.0086852135 -0.0031827998
0.0060814843 0.0032523507 0.0034712625 0.004928153 0.0037633232 0.0046848343 -0.00393472 0.0044983663
0.0021289568 -0.0005953943 -0.0059246398 -0.0042243325 -0.002565812 0.0040015215 0.0017576078 -0.0063359304
-0.0017860587 0.00023277756 -0.0016231496 0.0012685729 0.00026318047 0.0016100196 0.0016159721 0.00047485938
-0.003755854 -0.0024954968 0.0016433886 0.0076934686 0.0049899532 -0.00085798313 0.0029591902 0.006449202
0.0033943234 -0.005568767 -0.005017844 0.0036042791 -0.0047710394 0.0038564424 0.004565668 0.0040225913
0.002449966 -0.0064927004 0.004404792 -0.008908795 0.00545353 -0.004559325 -0.00021089625 -0.007857316
0.00033325684 -0.0036812497 0.0039522285 0.00010995575 -0.0020909843 0.002108411 0.003520829 0.008245734
-0.0010811707 0.005379075 -0.0077332356 -0.008463703 0.0027586897 -0.00020334705 0.000837776 -0.00041667515
-0.006083925 -0.0012375879 -0.00033558728 -0.0034261902 -0.0016140132 -0.0020993757 0.0019168688 -0.00249421
-0.0020940574 0.010132702 -0.0013861217 0.0006587301 -0.00014209 0.0031160188 0.00018017905 -0.0008070424
0.00155103 -0.0041908445 0.0017201222 -0.0034066571 -0.0031894336 -0.002930027 0.0029335555 -0.0060470835
0.0009243671 0.0077469624 0.012354027 0.0013111497 -0.011900039 -0.006166468 0.0057157897 -0.0066840393
-0.0009874849 0.004437292 0.003717285 -0.0013041317 0.0031360462 -0.0018999561 -0.0026460383 -0.002163811
-0.012306579 0.0085527655 -0.009119086 -0.0027649598 0.006905425 0.0057113594 -0.008287626 0.00730438
-0.0076380353 0.007454959 0.009210344 -0.00843671 0.0065141036 0.010604226 0.0069345124 0.010157654
0.0069130906 0.0069892397 0.006720027 -0.011601836 0.0032664004 0.0064130914 0.011753777 0.0066031753
-0.0064971866 -0.006764116 -0.0067064255 -0.0066504353 -0.006737082 -0.006628404 0.00673176 -0.0066859643
-0.0027821765 -0.008798767 -0.010077971 -0.009438528 -0.0028545808 0.0065426193 -0.0063656433 -0.008286097
-0.008479311 0.008773336 -0.0068348655 0.003336698 -0.0074754804 -0.0063951206 0.0043173875 -0.006862268
0.008966611 0.008595205 0.009977827 0.007826427 0.0064601987 -0.007669293 -0.006404391 -0.003926629
-0.006667701 0.006541077 0.006628372 -0.006738738 0.00666171 -0.0067487997 -0.006676988 -0.006732512
00000000: 8b24 1fbc 25dd 543b b33a 8ebb d5e1 c8bb
00000010: 05e0 873b ac7b 2c3c d8b2 e9bb 9c12 0a3c
00000020: 21c8 9ebb 74e2 a83b c871 213c bf16 b4bb
00000030: cd32 9b3b f287 9b3b 275d 463b 83db 083b
00000040: f03d 5d3b f790 623b 43f1 b33a 4e2c 0cbb
00000050: 3997 b03b ea3b 913b c80b 343a ce75 8b3b
00000060: e80a d5bb ac2c 96bb 4ec1 87bb 3c48 a5bb
00000070: fa7a 94bb 2aeb 8ebb 2e74 953b 1f9c 99bb
00000080: b429 a1b9 d2ad edbb 9536 c4bb 9276 8abb
00000090: 9aab 72bb 62a1 f43b 36d7 30bc 18e4 c0bb
000000a0: daab 29bc 88c7 283c 4077 81bb ec4b 44ba
000000b0: 7e47 71bb 868e 26bb f8d0 193b 3e39 59bb
000000c0: 665b 3cb8 e6d0 333b 869b 443b 782e a23b
000000d0: b2fe ad3a 5736 c6bb db57 29bb 91ae debb
000000e0: c0b6 93bb 596b b33b d6f1 aa3b bacf 91bb
000000f0: 6fb1 a13b 3ed4 96bb 83e3 9abb 2237 98bb
00000100: 38dd 0aba 3f31 e4ba aedf d23b ae9f c3ba
00000110: d3ee 973b d291 dfbb 7e16 1fb8 b884 8a3b
00000120: b5d8 033a 94ab 8d3b fa54 6fb9 a52f 633a
00000130: 56fd 89bb 1514 9b3b a764 d73a b181 5abb
00000140: 4366 863b 0e4b b73b d806 eb3b acd7 c8bb
00000150: 7c63 cdbb 8405 cd3b 6d4c 0e3c 8596 50bb
00000160: 3047 c73b 6425 553b 1f7e 633b 587c a13b
00000170: 16a2 763b 3d83 993b d3ee 80bb 0867 933b
00000180: f885 0b3b 3c14 1cba 7b23 c2bb 456c 8abb
00000190: 2f27 28bb 321f 833b 885f e63a a39d cfbb
000001a0: 2f1a eaba c015 7439 ddbf d4ba 3e46 a63a
000001b0: 7cfb 8939 4b07 d33a 07cf d33a 8cf6 f839
000001c0: c624 76bb 7d8b 23bb f966 d73a 7e19 fc3b
000001d0: c382 a33b 46ea 60ba f9ee 413b d453 d33b
000001e0: 4c73 5e3b 347a b6bb ba6c a4bb c535 6c3b
000001f0: 6156 9cbb 5ebc 7c3b 999b 953b f1cf 833b
00000200: 9c8f 203b b8c0 d4bb 1356 903b 32f6 11bc
00000210: 86b3 b23b 6466 95bb 0824 5db9 f9bb 00bc
00000220: fab8 ae39 1f41 71bb b281 813b 0b98 e638
00000230: e508 09bb 442d 0a3b b5bd 663b 1d19 073c
00000240: 12b6 8dba f442 b03b 1567 fdbb 58ab 0abc
00000250: 22cb 343b 8f39 55b9 329e 5b3a 3175 dab9
00000260: a95b c7bb 8f36 a2ba c3f1 afb9 ef89 60bb
00000270: 4c8d d3ba ae95 09bb 723f fb3a e675 23bb
00000280: 743c 09bb a203 263c 87ae b5ba a1ae 2c3a
00000290: fefd 14b9 1f36 4c3b 72ee 3c39 b38f 53ba
000002a0: ee4b cb3a 5a53 89bb b975 e13a 3942 5fbb
000002b0: d105 51bb b205 40bb e540 403b 9d26 c6bb
000002c0: 3a51 723a 3bda fd3b 8b68 4a3c e2da ab3a
000002d0: 62f8 42bc 1510 cabb 854b bb3b c905 dbbb
000002e0: 7f6e 81ba b466 913b b29d 733b 66ef aaba
000002f0: 2086 4d3b f307 f9ba 2869 2dbb b9ce 0dbb
00000300: 89a1 49bc e620 0c3c 3868 15bc 5434 35bb
00000310: e746 e23b 5b26 bb3b d3c8 07bc 9559 ef3b
00000320: 7c48 fabb bb48 f43b fce6 163c 203a 0abc
00000330: 4374 d53b 59bd 2d3c e83a e33b 4a6c 263c
00000340: 3587 e23b fe05 e53b ac33 dc3b a115 3ebc
00000350: 1b11 563b e924 d23b ea92 403c 735f d83b
00000360: 5ae6 d4bb 85a5 ddbb 93c1 dbbb e5eb d9bb
00000370: bdc2 dcbb 1533 d9bb 1996 dc3b ef15 dbbb
00000380: 2d55 36bb b428 10bc 131e 25bc 0ea4 1abc
00000390: eb13 3bbb 7863 d63b e396 d0bb 69c2 07bc
000003a0: cfec 0abc 0abe 0f3c 02f7 dfbb 81ac 5a3b
000003b0: e0f4 f4bb 298e d1bb df78 8d3b e0dc e0bb
000003c0: b1e8 123c e7d2 0c3c 0a7a 233c 6a3a 003c
000003d0: 13b0 d33b b14e fbbb eddb d1bb f4aa 80bb
000003e0: bb7c dabb 8856 d63b d032 d93b a2d0 dcbb
000003f0: 794a da3b 0925 ddbb a3ca dabb 679c dcbb

base_model.model.model.layers.0.self_attn.v_proj.lora_A.weight f4 [1, 2048]
-0.0076404708 -0.01305079 -0.0129015865 -0.011352918 0.0099369865 -0.01698394 0.029838383 -0.020500015
0.00949435 0.025172872 -0.010317256 -0.015960684 -0.025898974 -0.005342434 -0.007086866 -0.024729528
-0.013630236 -0.009089599 0.009902565 -0.0064419038 -0.008433564 -0.0065309363 -0.0015655819 0.0028313685
0.014794373 -0.003685017 0.004590826 0.015326291 -0.014456206 0.010035714 -0.0044757943 0.013051698
0.019618426 0.0076981313 0.0062420103 0.020966073 -0.0037443908 0.0069787237 0.020764211 -0.0072475993
-0.007136803 0.012685197 0.031790026 0.027432065 -0.014718931 0.016371408 0.0076048584 -0.009656719
0.019756697 -0.022832576 0.002185309 0.009817151 0.008137274 -0.0061226124 -0.0021603052 -0.017532472
-0.0017165896 -0.015741503 0.016070826 0.008703303 0.0029234292 -0.0144098 0.0043548746 0.0049805124
-0.0056462097 -0.011501619 0.0008609147 -0.0005004079 0.00018743389 0.0023746614 -0.016315144 -0.017633088
-0.008770002 -0.005805913 0.023670852 -0.0046249405 -0.004932446 -0.011622495 0.0020414067 0.024236795
-0.02673271 0.0082896175 0.02215989 0.008382853 0.005876283 0.016532443 -0.021432756 -0.019736188
0.0016087452 -0.008996364 -0.002380484 0.002069557 -0.009605748 0.016280394 -0.015363448 0.019656617
-0.00368208 0.021173222 0.018663222 -0.01201058 -0.021923043 0.009700993 0.017297177 0.003953254
0.0054186126 -0.0057474696 -0.00021584702 0.014479956 0.00026132294 -0.020369329 0.0063647553 -0.009503074
0.016935203 -0.035265476 -0.011550812 -0.022020448 -0.009764287 -0.015212664 -0.007892861 -0.01314909
0.017547857 0.016898291 0.0028971382 -0.01447021 -0.0067755026 -0.023539213 -0.0057732426 -0.015053362
-0.022109361 0.023093386 0.016502539 0.015030227 0.011263567 0.028380662 -0.0072995154 0.0008903185
-0.007502928 -0.008523809 -0.022682332 0.014433602 -0.014198731 -0.012339859 0.015325464 -0.017648026
-0.0036528807 -0.02445873 -0.010213622 0.018793752 0.0015858904 -0.0038745631 -0.007617985 0.0095034875
0.018699868 0.008075639 -0.019165179 -0.002308961 0.002447234 0.011959662 0.026468476 0.01618496
0.011807044 -0.019385219 -0.007867316 0.013989594 -0.000524687 0.007936452 0.008170096 -0.024898984
-0.0045482577 -0.013993932 -0.0030332478 -0.0007659099 0.020506125 0.006789096 0.020296212 -0.033384364
0.0009014465 -0.00899899 -0.015025748 0.01348061 0.024258487 -0.022592649 -0.01808663 -0.0009622414
-0.00088051584 0.021825258 0.0064418507 0.0083155595 -0.010678412 0.0047239386 -0.009717607 -0.0129475165
-0.006660819 0.006115504 -0.007198657 -0.0010432288 0.014594619 0.026007796 -0.0018936625 0.0260988
-0.00012317376 -0.0155546935 0.023948485 -0.0045809927 0.0027978637 -0.008885581 0.012980792 -0.011752642
-0.0083426135 0.008257818 -0.016926216 0.010490673 0.021256384 0.008720026 -0.0016081029 -0.0068247705
-0.01960387 -0.019244501 -0.014460343 0.014019178 0.021438742 0.008196577 0.00016387367 0.01377388
-0.0023837008 -0.019099707 0.014579151 -0.0090357475 -0.0156955 0.013385623 -0.010943637 -0.010819724
-0.012533946 -0.0074211066 0.013185565 -0.022033924 -0.02079229 -0.012871384 0.015819041 -0.004194776
-0.013950617 0.0013511576 0.016495738 0.009478003 0.0018987451 0.010733628 0.0039504245 0.0051203175
0.0090833325 0.0075983144 0.0006313184 0.019947624 0.011012661 -0.013931026 0.009360499 -0.017675295
00000000: ea5c fabb fbd2 55bc 2d61 53bc 9701 3abc
00000010: bece 223c e721 8bbc a06f f43c a6ef a7bc
00000020: 318e 1b3c 5737 ce3c b509 29bc fbbf 82bc
00000030: 162a d4bc 960f afbb f138 e8bb 9495 cabc
00000040: 5a51 5fbc 8bec 14bc 5e3e 223c 9b16 d3bb
00000050: ee2c 0abc 7701 d6bb 3634 cdba 7b8e 393b
00000060: 1964 723c 5480 71bb a46e 963b 201b 7b3c
00000070: b9d9 6cbc d66c 243c afa9 92bb cad6 553c
00000080: d2b6 a03c 9b40 fc3b c789 cc3b 0bc1 ab3c
00000090: 7464 75bb c7ad e43b b519 aa3c 457d edbb
000000a0: d8db e9bb 93d5 4f3c 4236 023d 36b9 e03c
000000b0: ac27 71bc 551d 863c 2d32 f93b 3737 1ebc
000000c0: ccd8 a13c 620b bbbc 6737 0f3b 1ed8 203c
000000d0: 3352 053c 32a0 c8bb e893 0dbb 42a0 8fbc
000000e0: 30ff e0ba 53f4 80bc f7a6 833c 4c98 0e3c
000000f0: 0197 3f3b 1517 6cbc 56b3 8e3b 9133 a33b
00000100: d703 b9bb 4971 3cbc 02af 613a ce2d 03ba
00000110: e789 4439 35a0 1b3b 56a7 85bc 4473 90bc
00000120: 0eb0 0fbc 873f bebb 60e9 c13c d08c 97bb
00000130: 5ba0 a1bb 476c 3ebc 1fc9 053b 3e8c c63c
00000140: 8efe dabc 2dd1 073c a888 b53c 3c58 093c
00000150: d68d c03b 0c6f 873c bf93 afbc c9ad a1bc
00000160: 88dc d23a 7c65 13bc e501 1cbb 68a1 073b
00000170: 6d61 1dbc 765e 853c f9b6 7bbc ea06 a13c
00000180: 0d4f 71bb 7773 ad3c 9de3 983c 06c8 44bc
00000190: f497 b3bc eaf0 1e3c cfb2 8d3c 4c8a 813b
000001a0: 9e8e b13b 4555 bcbb fe54 62b9 563d 6d3c
000001b0: 2c02 8939 94dd a6bc 708f d03b c8b2 1bbc
000001c0: b2bb 8a3c 8872 10bd 9e3f 3dbc 3a64 b4bc
000001d0: 63fa 1fbc 8a3e 79bc 0f51 01bc 486f 57bc
000001e0: 86c0 8f3c 496e 8a3c eadd 3d3b 7614 6dbc
000001f0: 0905 debb 4fd5 c0bc 782d bdbb 60a2 76bc
00000200: b11e b5bc 572e bd3c 5530 873c 5741 763c
00000210: d38a 383c 907e e83c c630 efbb 4364 693a
00000220: 1fdb f5bb 72a7 0bbc 4cd0 b9bc ea7a 6c3c
00000230: cba1 68bc 1f2d 4abc a817 7b3c 9892 90bc
00000240: 2b65 6fbb ad5d c8bc 0957 27bc 5bf5 993c
00000250: a7dd cf3a 62ec 7dbb 4aa0 f9bb 84b4 1b3c
00000260: 7730 993c af4f 043c 4b00 9dbc f051 17bb
00000270: c661 203b 75f2 433c 6bd4 d83c 5296 843c
00000280: 5572 413c c0cd 9ebc eae5 00bc 9c34 653c
00000290: 268b 09ba e407 023c dedb 053c f4f8 cbbc
000002a0: 8d09 95bb ce46 65bc 74c9 46bb 58c7 48ba
000002b0: 76fc a73c 1177 de3b 3e44 a63c 0bbe 08bd
000002c0: 0d4f 6c3a 8070 13bc 8e2e 76bc c7dd 5c3c
000002d0: bcb9 c63c 3814 b9bc 6a2a 94bc ed3e 7cba
000002e0: 6bd2 66ba e2ca b23c 2916 d33b fc3d 083c
000002f0: 82f4 2ebc 45cb 9a3b 9936 1fbc d221 54bc
00000300: 0043 dabb 9164 c83b b6e2 ebbb f3bc 88ba
00000310: 451e 6f3c 4d0e d53c c534 f8ba 27cd d53c
00000320: 3428 01b9 1dd9 7ebc 9d2f c43c 271c 96bb
00000330: 5d5c 373b d494 11bc 63ad 543c 278e 40bc
00000340: 75af 08bc cd4b 073c d9a8 8abc 12e1 2b3c
00000350: de21 ae3c 71de 0e3c fbc6 d2ba 53a2 dfbb
00000360: 4c98 a0bc a5a6 9dbc 13eb 6cbc b2b0 653c
00000370: 4da0 af3c f04a 063c 81d5 2b39 d7ab 613c
00000380: dd37 1cbb fd76 9cbc 64dd 6e3c ac0a 14bc
00000390: d993 80bc 5f4f 5b3c f14c 33bc 3645 31bc
000003a0: 2e5b 4dbc c12c f3bb 4508 583c 7d80 b4bc
000003b0: 9854 aabc 7fe2 52bc ef96 813c 5574 89bb
000003c0: 2191 64bc 5319 b13a 1222 873c a049 1b3c
000003d0: 50df f83a 19dc 2f3c 9072 813b 56c8 a73b
000003e0: 42d2 143c 48fb f83b 107f 253a 3369 a33c
000003f0: 736e 343c f53e 64bc c75c 193c c8cb 90bc

base_model.model.model.layers.0.self_attn.v_proj.lora_B.weight f4 [256, 1]
0.0018281182 -0.0013304843 0.0023014813 -0.002219147 7.342756e-05 -0.0015057527 0.006338487 0.003318837
0.0020495586 -0.002584241 -0.0017885221 0.0044719004 -0.0068922546 0.007243897 0.0048787 0.0015270817
0.0012327889 -0.0041213785 0.0022275113 0.0076350495 -0.0012025244 -0.003946302 0.0029939185 -0.005488063
0.0015346634 -0.005952369 -0.0033723018 0.008888637 -0.00276208 -0.0013909446 -0.00038191822 0.0015526582
0.0036467903 -0.0026532905 0.0029887448 0.0056086206 -0.00018898629 -0.004536292 0.001847979 0.0013431098
-0.0016702911 -0.0018853267 0.0038036017 0.003930857 0.00095011824 -0.003630134 0.0019633968 0.0046237917
-0.005131482 -0.0076319166 -0.00736803 0.0013714931 0.0034744025 -0.0020788608 -0.007026526 -0.0012844597
0.0076001096 -0.0023235723 -0.0031314553 0.006566104 -0.005588029 0.0030553502 -0.005235292 -0.0046436684
-0.0005826626 0.0007553897 0.0014087376 0.0045911437 0.00011647252 0.00017909953 -0.003702796 -0.0011694934
0.004037199 0.0019373298 -0.005091335 5.1979743e-05 0.0025431549 -0.00044016814 0.008342016 -0.0027576152
-0.001798117 0.0013541096 0.0007554087 0.0008395386 0.004936338 -0.0052732956 -0.0013826211 0.0073607313
0.0017228909 -0.0010047079 -0.0003120528 0.0032265666 0.004610569 -0.0030411873 -0.006333974 0.005199652
-0.0026645977 -0.0020027552 0.0046423906 -0.00089837407 -0.0024600294 0.0039635547 0.0033700592 -0.0010315155
-0.00058457395 0.0009542112 0.0009770194 0.006391566 0.00014094834 -0.003339649 0.00329045 -0.0071872626
0.0069045806 0.004181017 -0.001534045 -0.0010193604 0.008516622 0.00697122 -0.0047363844 0.010067707
-0.001344344 0.0017627648 -0.0013960487 -0.0065724663 -0.002515282 0.00415775 -0.00498898 -0.0035825295
-0.0018199222 0.0037717775 0.0044223755 -0.0031011265 0.0027504412 -0.0026458707 -0.002665616 0.0077200164
0.0059444653 0.0014730443 0.0015188433 -0.004061825 0.0033910563 -0.006998198 0.0003666936 -0.0022618969
0.0051396885 -0.0033958338 -0.005100882 -0.0014588126 -0.0020446507 0.0026931835 -0.009030208 0.0042905593
-0.0087412065 -0.0034906296 -0.001975942 -0.0005880823 0.0018499359 0.0021251906 -3.3178705e-05 -0.0051945737
-0.004089441 0.0029899888 0.0042823236 0.0030592585 0.0048743836 -0.0010886212 -0.0010391335 0.0060933647
0.00019701137 0.0041245865 0.0014941102 -0.002806938 0.004840361 0.0029864858 -0.0024552415 -0.0051423484
-0.0030448718 -0.00033056282 0.0012968002 -0.0033090042 0.004100035 0.007674993 0.0030463324 -0.008393039
0.0032055087 -0.004255276 0.0019989365 -0.00011748668 -0.0063847 0.003973786 0.007384295 -0.010227984
0.0013536329 0.004675802 0.00408637 0.0033998964 -0.0033890887 0.0022469242 0.001650268 0.0012474299
0.012975069 -0.0013312825 0.007314129 0.001097518 -0.00269623 0.005815742 0.002849953 0.0036800914
0.0035792105 -0.0034561935 0.0072762207 0.0042647193 0.00010966799 0.00046960614 -0.0073375567 -0.009198739
0.004807927 0.0051159053 -0.004915632 -0.0048364815 0.0027481725 0.0044195373 0.00065151503 0.004689141
-0.005788902 0.0047100727 0.0028477518 0.00017503064 -0.0016154082 0.0010105286 0.00073024817 -0.0006376651
-0.005536586 0.0008835133 -0.0052639204 0.0029256758 -0.0010715645 0.0006662557 -0.0063047335 -0.0068610045
0.0026957032 0.004420455 0.005203754 0.0030580368 0.0018590367 0.00738133 -0.0005884458 -0.0056058955
0.0039106715 -0.0060246205 -0.0024664982 0.0006069543 0.0095601315 -0.00079394155 -0.00323494 0.0007386715
00000000: 789d ef3a a563 aeba 73d4 163b 1c6f 11bb
00000010: 1ffd 9938 ad5c c5ba 15b3 cf3b d880 593b
00000020: e351 063b 5f5c 29bb d86c eaba 0589 923b
00000030: 6cd8 e1bb 365e ed3b 80dd 9f3b 5c28 c83a
00000040: 8895 a13a a10c 87bb 70fb 113b 702f fa3b
00000050: 069e 9dba fb4f 81bb 9e35 443b 36d5 b3bb
00000060: c226 c93a 170c c3bb d601 5dbb a5a1 113c
00000070: 0304 35bb 5b50 b6ba 323c c8b9 9082 cb3a
00000080: fdfe 6e3b d4e2 2dbb d1de 433b 85c8 b73b
00000090: 9f2a 46b9 2da5 94bb e337 f23a 490b b03a
000000a0: abed daba 111d f7ba d945 793b 6bce 803b
000000b0: 5b11 793a 8be7 6dbb 55ac 003b 2d83 973b
000000c0: fe25 a8bb 2815 fabb 846f f1bb acc3 b33a
000000d0: cdb2 633b 7f3d 08bb c63e e6bb 515b a8ba
000000e0: 570a f93b 1347 18bb 1a39 4dbb 7928 d73b
000000f0: c91b b7bb 453c 483b d08c abbb ea29 98bb
00000100: d3bd 18ba 5805 463a 64a5 b83a 4e71 963b
00000110: b542 f438 aacc 3b39 9caa 72bb b049 99ba
00000120: 7b4a 843b 00ee fd3a 37d5 a6bb d304 5a38
00000130: 0fab 263b 5ec6 e6b9 f3ac 083c 1bb9 34bb
00000140: cbae ebba 617c b13a 9f06 463a 7b14 5c3a
00000150: 01c1 a13b 9ccb acbb 1139 b5ba 4a32 f13b
00000160: a0d2 e13a 67b0 83ba 059b a3b9 ce74 533b
00000170: 4214 973b a84e 47bb 3a8d cfbb d861 aa3b
00000180: 88a0 2ebb a840 03bb 321f 983b dd80 6bba
00000190: 7238 21bb b5e0 813b 36dc 5c3b eb33 87ba
000001a0: 183e 19ba 0824 7a3a 550f 803a 5770 d13b
000001b0: 88cb 1339 03de 5abb 97a4 573b 2183 ebbb
000001c0: d23f e23b ea00 893b 0212 c9ba 0f9c 85ba
000001d0: 4d89 0b3c d56e e43b ac33 9bbb 06f3 243c
000001e0: b334 b0ba 920c e73a 9ffb b6ba d85d d7bb
000001f0: 6ed7 24bb bc3d 883b 997a a3bb dfc8 6abb
00000200: 758a eeba ed2f 773b 93e9 903b 453c 4bbb
00000210: bf40 343b 5866 2dbb 9eb1 2ebb 31f8 fc3b
00000220: cac9 c23b 2a13 c13a ed13 c73a 0f19 85bb
00000230: 7c3c 5e3b 2451 e5bb c840 c039 553c 14bb
00000240: d56a a83b a38c 5ebb 4d25 a7bb a135 bfba
00000250: 8cff 05bb 1f80 303b 70f3 13bc d297 8c3b
00000260: 4737 0fbc 0cc3 64bb ce7e 01bb 8929 1aba
00000270: 8c79 f23a c846 0b3b 5d29 0bb8 3e37 aabb
00000280: b800 86bb b0f3 433b bc52 8c3b d77d 483b
00000290: 4bb9 9f3b 11b0 8eba 8933 88ba d9aa c73b
000002a0: d694 4e39 8a27 873b 05d6 c33a 9bf4 37bb
000002b0: e49b 9e3b ebb8 433b 1ee8 20bb 2581 a8bb
000002c0: 798c 47bb 644f adb9 65f9 a93a e1db 58bb
000002d0: 9659 863b 827e fb3b faa4 473b f582 09bc
000002e0: 8313 523b d86f 8bbb 9700 033b 2e63 f6b8
000002f0: bf36 d1bb 8836 823b f5f7 f13b 4693 27bc
00000300: 626c b13a 7837 993b f5e6 853b ccd0 5e3b
00000310: 791b 5ebb 2241 133b ce4d d83a cd80 a33a
00000320: 6295 543c 6e7e aeba 5cab ef3b 98da 8f3a
00000330: 3cb3 30bb fb91 be3b 47c6 3a3b b02d 713b
00000340: 3091 6a3b 4e81 62bb 5d6d ee3b 0fbf 8b3b
00000350: 8efd e538 7835 f639 e36f f0bb 4fb6 16bc
00000360: d18b 9d3b 53a3 a73b 4f13 a1bb 597b 9ebb
00000370: af1a 343b c4d1 903b 6fca 2a3a 5ea7 993b
00000380: d4b0 bdbb f456 9a3b 59a1 3a3b 6e88 3739
00000390: 1bbc d3ba b773 843a 206e 3f3a fb28 27ba
000003a0: 406c b5bb 939b 673a f77c acbb b2bc 3f3b
000003b0: bd73 8cba aaa7 2e3a f097 cebb 47d2 e0bb
000003c0: 65aa 303b 77d9 903b 4184 aa3b 5869 483b
000003d0: ecaa f33a 15df f13b ee41 1aba a9b1 b7bb
000003e0: 1725 803b 2e6a c5bb f9a4 21bb 031c 1f3a
000003f0: 19a2 1c3c 8420 50ba 4a01 54bb 68a3 413a

base_model.model.model.layers.1.self_attn.q_proj.lora_A.weight f4 [1, 2048]
-0.020265471 0.005428147 0.011536373 0.027725529 0.01191663 -0.00855305 0.025016202 -0.0071896347
0.004633075 0.0075490577 -0.01441912 0.018049262 0.0067465757 0.016690945 -0.0020473015 -0.0124889305
0.010049502 -0.0031511185 0.016763058 0.003950033 -0.0036481875 0.007978353 0.0114246225 0.004652951
0.020520391 0.018220404 -0.015220645 -0.012958266 -0.01977152 -0.014132679 0.011596374 0.014220403
-0.008279609 -0.0003762908 -0.019872492 -0.018316573 0.009651749 0.008814971 0.004638797 -0.007483997
0.011377546 0.0063768653 -0.013993207 0.021320198 -0.005389438 -0.005951295 -0.011808307 0.02246769
0.018584725 -0.0035460538 -0.020194396 -0.00022364517 -0.02368102 -0.0063811 0.021762272 0.0019525683
-0.016081585 -0.009812283 0.0037303232 0.006933251 -0.015976366 -0.009217658 0.013076462 0.010916549
0.0168176 0.0020315368 -0.009194303 -0.0175971 0.008449905 0.01679911 0.0009095594 -0.022663046
0.01868927 0.009339353 0.00989717 0.019571088 -0.008124672 0.0021072903 0.002492074 0.0166851
0.013064886 -0.0070979483 0.017542642 -8.746298e-05 -0.008517294 0.007684273 0.017023942 -0.019253306
0.01454226 -0.02377389 -0.011891366 -0.01847529 0.020208212 0.0013193906 -0.014856533 -0.0048346245
0.017455125 0.019280605 0.0016840647 0.0029845769 -0.0070716515 -0.00032361416 0.006131016 -0.021690669
0.0171054 0.010328248 0.021520542 0.002893486 -0.00857534 0.021065144 -0.01341057 -0.020495806
0.0025345788 0.0028032311 0.014375927 0.00091627974 0.0033057884 0.007770176 -0.014390549 -0.015991125
-0.005983165 0.00067008135 -0.008426617 -0.012365523 5.105275e-05 0.022752877 0.017944975 -0.0077599105
-0.007872085 -0.021609934 0.0047143623 -0.02141023 0.010624042 0.007733624 0.0034740036 0.000255494
0.011878304 -0.0045357705 0.01541387 0.011001306 0.0054155113 0.008710057 -0.023632975 -0.0010390797
-0.017179675 -0.007807162 -0.008795566 0.022889303 -0.01898815 -0.009909304 0.007710472 -0.012246839
-0.002943179 -0.017139394 -0.00087230303 0.017282737 0.017051036 -0.0030084613 -0.0130501175 0.0076320386
0.002274022 0.010069821 0.011142965 -0.01117857 0.020282406 -0.020967957 0.0058059883 -0.0125537105
-0.016412959 0.016720084 0.013913321 0.0100539895 -0.0060775783 -0.01377488 -0.011849087 -0.007269496
0.0008077031 0.017199444 0.003682493 -0.008927215 0.017757433 -0.012114344 0.015478427 0.0048079784
-0.0067945556 0.004818684 -0.020071125 0.020894343 0.009492578 0.018104246 0.010645293 0.013042146
0.024348762 -0.00042619146 0.0005719716 -0.015030669 0.014452538 0.007772786 -0.021120554 0.013378951
-0.007011141 0.004735948 -0.009138547 0.025390388 0.009507263 0.015610093 -0.022729972 -0.011767222
0.0067292587 -0.0019528787 -0.016400855 0.003988182 -0.008742036 -0.0064390046 0.009277662 0.00067928573
0.021910174 -0.00568108 -0.0006052912 0.011371986 -0.017476633 0.013080182 -0.014981018 -0.016508903
-0.016640857 0.018098092 -0.01664117 0.019626714 -0.01637743 0.015270674 -0.018205967 -0.02232573
0.018517183 0.008128177 0.0028464731 -0.02250329 0.011880465 0.017436307 -0.008820916 -0.0021248667
0.011152967 0.009722021 0.009461986 0.007093663 -0.014013965 0.009874585 0.007966928 0.010182996
-0.019873656 0.016404651 -0.020775707 0.014755084 0.011498899 0.0015436306 0.01555169 -0.012676673
00000000: c603 a6bc 99de b13b 0e03 3d3c a620 e33c
00000010: f83d 433c 1822 0cbc c7ee cc3c 0797 ebbb
00000020: 0dd1 973b 165e f73b 2c3e 6cbc 0cdc 933c
00000030: 6112 dd3b 73bb 883c 052c 06bb 5f9e 4cbc
00000040: aba6 243c ff82 4ebb ae52 893c 476f 813b
00000050: 6e16 6fbb a3b7 023c 572e 3b3c c877 983b
00000060: 611a a83c f542 953c 0360 79bc e84e 54bc
00000070: e2f7 a1bc c18c 67bc b8fe 3d3c b1fc 683c
00000080: 32a7 07bc e548 c5b9 a3cb a2bc a30c 96bc
00000090: 5f22 1e3c ab6c 103c 0d01 983b 513c f5bb
000000a0: e368 3a3c 06f5 d03b c443 65bc b2a7 ae3c
000000b0: e299 b0bb 1503 c3bb a177 41bc 290e b83c
000000c0: fe3e 983c e964 68bb b86e a5bc 4b82 6ab9
000000d0: b3fe c1bc 8c18 d1bb cb46 b23c 52ed ff3a
000000e0: 87bd 83bc b3c3 20bc 7078 743b 5330 e33b
000000f0: dee0 82bc a905 17bc a83e 563c 53db 323c
00000100: 10c5 893c 8823 053b b4a3 16bc cb27 90bc
00000110: 7871 0a3c 4a9e 893c 806f 6e3a daa7 b9bc
00000120: 3d1a 993c 1604 193c bd27 223c 8c53 a03c
00000130: 581d 05bc 771a 0a3b 1052 233b 31af 883c
00000140: 1b0e 563c e895 e8bb 96b5 8f3c 546c b7b8
00000150: 1f8c 0bbc 5bcc fb3b cb75 8b3c 1cb9 9dbc
00000160: a942 6e3c 76c1 c2bc 01d4 42bc 7e59 97bc
00000170: b18b a53c 67ef ac3a d168 73bc c56b 9ebb
00000180: 0dfe 8e3c 5cf2 9d3c d6bb dc3a e498 433b
00000190: 50b9 e7bb c2aa a9b9 b1e6 c83b a1b0 b1bc
000001a0: a020 8c3c d037 293c d94b b03c a4a0 3d3b
000001b0: 957f 0cbc cf90 ac3c 02b8 5bbc d2e6 a7bc
000001c0: 2d1b 263b 6ab6 373b 0289 6b3c 7e32 703a
000001d0: eda5 583b f69c fe3b 56c6 6bbc d2ff 82bc
000001e0: 6d0e c4bb 66a8 2f3a cb0f 0abc c398 4abc
000001f0: 7921 5638 3e64 ba3c 5701 933c d946 febb
00000200: ebf9 00bc 5107 b1bc f07a 9a3b 8264 afbc
00000210: 7610 2e3c 576a fd3b 1cac 633b d3f3 8539
00000220: 389d 423c cda0 94bb 758a 7c3c d23e 343c
00000230: 9a74 b13b a0b4 0e3c f199 c1bc bb31 88ba
00000240: 64bc 8cbc 39d3 ffbb 471b 10bc 5982 bb3c
00000250: 098d 9bbc a25a 22bc 21a8 fc3b f7a6 48bc
00000260: 5ae2 40bb ea67 8cbc 44ab 64ba 8794 8d3c
00000270: 9dae 8b3c 9b29 45bb 29d0 55bc 2e16 fa3b
00000280: c207 153b e4fb 243c fc90 363c 5226 37bc
00000290: 4a27 a63c fec4 abbc 2940 be3b 14ae 4dbc
000002a0: 7874 86bc 8ff8 883c b3f4 633c 7db9 243c
000002b0: 6c26 c7bb 09b0 61bc ac22 42bc f434 eebb
000002c0: 0abc 533a d9e5 8c3c fb55 713b 7443 12bc
000002d0: 0978 913c 3e7b 46bc 3a99 7d3c 3f8c 9d3b
000002e0: dda4 debb 0de6 9d3b 336c a4bc 9d2a ab3c
000002f0: c286 1b3c 5b4f 943c 9869 2e3c baae 553c
00000300: 0e77 c73c 7372 dfb9 5df0 153a 3243 76bc
00000310: 57ca 6c3c dbb2 fe3b 0305 adbc 6333 5b3c
00000320: b7bd e5bb 0330 9b3b d8b9 15bc 81ff cf3c
00000330: 5ac4 1b3c 7ac1 7f3c 3534 babc 4ecb 40bc
00000340: 1d81 dc3b bcf7 ffba 165b 86bc 4caf 823b
00000350: c23a 0fbc 49fe d2bb 5601 183c 1812 323a
00000360: f77c b33c 5a28 babb 68ac 1eba 9151 3a3c
00000370: 282b 8fbc 424e 563c f272 75bc ae3d 87bc
00000380: 6852 88bc 7342 943c 1053 88bc 34c8 a03c
00000390: f629 86bc d931 7a3c ae24 95bc 73e4 b6bc
000003a0: 59b1 973c 0c2c 053c e58b 3a3b d258 b8bc
000003b0: 48a6 423c 96d6 8e3c 9a85 10bc 5941 0bbb
000003c0: efba 363c 1d49 1f3c 7206 1b3c f571 e83b
000003d0: d49a 65bc 03c9 213c b887 023c 95d6 263c
000003e0: 14ce a2bc 0c63 863c d131 aabc 4fbf 713c
000003f0: e165 3c3c a653 ca3a 84cc 7e3c d2b1 4fbc

base_model.model.model.layers.1.self_attn.q_proj.lora_B.weight f4 [2048, 1]
-0.0015962432 0.0010941622 0.00057034346 0.0030728693 0.0053684884 -0.0054411483 0.0013432362 -0.00048740004
-0.0008265392 -0.0022774958 0.0034408902 0.0030580647 0.0019370533 0.0013497212 0.003424924 0.0018280307
-0.0013814577 0.0021409832 -0.0008637135 -0.0021433458 -0.0023256666 -0.0048141275 0.0005441922 -0.004809117
0.006391279 0.002823126 0.0022100753 -0.00015857039 -0.0023325966 0.002804277 -0.0049816547 0.00017470677
0.005462714 -0.0025119544 0.001979674 -0.0009986374 -0.0024885458 0.002833556 -4.339267e-06 -0.003623797
0.0034478493 0.005128568 -0.005593678 -0.0045927805 0.0015408577 0.0022557445 0.0012080488 0.002541203
-0.002846892 -0.0035226024 0.003597408 -0.0046462296 0.00074988964 0.0030415284 0.0042272923 -0.0034825192
0.0014001536 -0.006000472 -0.005894205 -0.0035487586 0.0005828202 0.00034621407 -0.004949549 -0.0003702893
0.005119633 -0.012786254 -0.00055542105 0.006113246 0.0024245775 -0.009105267 0.006794344 0.00041313827
-0.006888585 -0.0072462577 -0.0001131984 0.0025580726 -0.0025907955 -0.0015503212 0.005387059 0.008233177
-0.010577535 0.005419488 -0.006319965 -0.007053095 -0.00982026 0.00082266354 -0.0037088285 0.002509248
-0.0031555705 -0.0067018373 -0.00040424426 -0.008032852 0.0027561674 -0.0036866243 0.003301489 -0.0028702905
0.0064168214 -0.0106194755 0.0036538858 -0.0045533427 0.0081393365 -0.010488472 -0.0027007104 3.4571865e-06
-0.00046410112 0.0024140233 0.0059199813 -0.0032184294 0.009907536 -0.007322985 -0.0035275724 0.0019693605
-6.083598e-05 -0.002939654 0.0013330561 -0.0036683585 0.0051002195 -0.0032482548 0.0048806947 0.00798643
-0.007421699 0.003921689 -8.561312e-05 0.00372215 0.0023912385 0.008344038 0.0053365077 0.004732966
0.0036531433 -0.0030973468 -0.00066076784 0.0042685256 0.0037694317 -0.0045056893 0.0014280563 0.0049928944
-0.0027520147 -0.0047887424 0.004117976 0.00019012389 0.003021345 -0.0018890332 0.0035546434 0.0021700624
-0.0055444916 0.005158171 -0.0022085272 -0.0014224274 -0.0066499547 -0.003538079 0.00017738031 -0.002888184
0.0037953574 -0.001248657 0.0030424132 -0.00045722706 -0.0017621272 -0.00046168928 0.00078314135 -0.0005564379
0.005520907 -0.005982239 0.0024215702 -0.00069709023 0.002727747 -0.0032492967 -0.003270661 -0.0012885485
0.0030137505 0.0025859708 -0.0017954942 -0.0065619517 0.004535282 0.003165191 0.0027086728 0.0008983847
1.9213343e-05 0.0020414898 0.0023791369 -0.0018794432 -0.00071237626 0.003877251 0.0054668523 -0.0012658726
0.00015279077 -0.0035034565 -0.002943816 -0.0019648413 -0.0038530936 -0.00087909825 -9.3552764e-05 -0.0017946239
-0.0012215395 0.0027066786 -0.0039566415 -0.0024960828 -0.003639 0.0023670676 -0.001362589 -0.00033547473
0.0044335225 0.0013229535 0.0011279357 -0.0038723908 -0.0006502582 0.0016847871 0.0018397907 -0.00522996
-0.00020232768 -0.0001123274 -7.391894e-05 0.0027848154 0.0070071686 -0.004593439 0.0018547626 -0.0031113732
0.0031154763 0.0039323117 -0.0048283977 0.002281159 0.00032437823 0.00063640636 -0.006185922 0.0029360948
0.0011460112 -0.002055801 0.00013601809 0.00032109322 -0.00088540796 0.0009846257 -0.00022128668 0.00077972887
0.0033117952 -0.0014900486 -0.0072890515 -0.001903689 -0.004098706 0.0018173258 -0.0007018534 -0.0044945297
-0.001160292 -0.00066448894 0.0032336216 0.0013467077 0.0015849106 0.002111978 -0.0014086136 -0.0061563193
0.0031937764 -0.0037117205 -0.0004406228 -0.0022573255 0.00024140053 -0.0040701926 -0.0021351238 0.0013708837
00000000: 0939 d1ba fe69 8f3a 1a83 153a 3162 493b
00000010: 25ea af3b a94b b2bb 870f b03a ba89 ffb9
00000020: 1bac 58ba 0a42 15bb 8f80 613b d069 483b
00000030: b9e4 fd3a 21e9 b03a b174 603b 889a ef3a
00000040: 0712 b5ba bd4f 0c3b d56a 62ba 6077 0cbb
00000050: 366a 18bb d4bf 9dbb 1fa8 0e3a cc95 9dbb
00000060: ef6d d13b 3204 393b e9d6 103b ea45 26b9
00000070: 7ade 18bb f6c7 373b 263d a3bb 7e31 3739
00000080: 9100 b33b 9a9f 24bb 6bbd 013b b6e4 82ba
00000090: df16 23bb 2eb3 393b 059a 91b6 3a7d 6dbb
000000a0: 50f5 613b 8c0d a83b 2c4b b7bb 097f 96bb
000000b0: 9bf6 c93a 1dd5 133b 6457 9e3a 508a 263b
000000c0: ec92 3abb 76db 66bb 7ec2 6b3b 663f 98bb
000000d0: 3e94 443a 6154 473b 1985 8a3b fa3a 64bb
000000e0: 5c85 b73a 9c9f c4bb 2d24 c1bb 4a92 68bb
000000f0: 67c8 183a 1184 b539 d42f a2bb 6323 c2b9
00000100: 98c2 a73b 707d 51bc ad99 11ba a051 c83b
00000110: a9e5 1e3b 422e 15bc 17a3 de3b 7b9a d839
00000120: a4b9 e1bb 0472 edbb ee64 edb8 56a5 273b
00000130: 56ca 29bb 2634 cbba ed85 b03b 72e4 063c
00000140: 664d 2dbc f695 b13b b517 cfbb a61d e7bb
00000150: 28e5 20bc 04a8 573a d10f 73bb 3272 243b
00000160: b0cd 4ebb 169b dbbb bff0 d3b9 399c 03bc
00000170: d1a0 343b 4b9b 71bb cb5d 583b 7c1b 3cbb
00000180: 3344 d23b 4ffd 2dbc 0876 6f3b 3534 95bb
00000190: da5a 053c d7d7 2bbc 67fe 30bb 0302 6836
000001a0: 9952 f3b9 9734 1e3b 67fc c13b 49ec 52bb
000001b0: 3853 223c a7f5 efbb d82e 67bb 6310 013b
000001c0: 232a 7fb8 36a7 40bb f1b9 ae3a d868 70bb
000001d0: be1f a73b ace0 54bb 3cee 9f3b 84d9 023c
000001e0: b931 f3bb 8381 803b 328b b3b8 51ef 733b
000001f0: 53b6 1c3b 6fb5 083c dfdd ae3b ff16 9b3b
00000200: 9369 6f3b dbfc 4abb 6137 2dba fdde 8b3b
00000210: 9208 773b 76a4 93bb 9e2d bb3a 6f9b a33b
00000220: 255b 34bb e2ea 9cbb 16f0 863b fe5b 4739
00000230: c201 463b 7099 f7ba 05f5 683b 9b37 0e3b
00000240: 91ae b5bb e005 a93b f0bc 10bb be70 baba
00000250: dde7 d9bb 1edf 67bb 2aff 3939 b047 3dbb
00000260: 88bb 783b faa9 a3ba 3963 473b fab7 efb9
00000270: 2df7 e6ba e30e f2b9 ba4b 4d3a eadd 11ba
00000280: bae8 b43b a806 c4bb 35b3 1e3b efbc 36ba
00000290: 00c4 323b 27f2 54bb 9658 56bb 83e4 a8ba
000002a0: 5882 453b 6479 293b ca56 ebba a405 d7bb
000002b0: b49c 943b 186f 4f3b fd83 313b 9481 6b3a
000002c0: 572c a137 84ca 053b 4beb 1b3b a657 f6ba
000002d0: c3be 3aba 7a19 7e3b 4823 b33b a3eb a5ba
000002e0: 7636 2039 3f9a 65bb 09ed 40bb 91c4 00bb
000002f0: 2f84 7cbb 4973 66ba c231 c4b8 9639 ebba
00000300: 101c a0ba 8862 313b b7a6 81bb 5295 23bb
00000310: 4a7c 6ebb ce20 1b3b e698 b2ba a8e2 afb9
00000320: 1547 913b f466 ad3a 3ed7 933a f0c7 7dbb
00000330: 1776 2aba 13d4 dc3a 2225 f13a 1660 abbb
00000340: ec27 54b9 5091 ebb8 ee04 9bb8 7381 363b
00000350: 649c e53b 8f84 96bb 811b f33a 2ee8 4bbb
00000360: 052d 4c3b 9fda 803b 8937 9ebb 7f7f 153b
00000370: 4f11 aa39 82d4 263a 46b3 cabb 7f6b 403b
00000380: c135 963a 9eba 06bb 14a0 0e39 6758 a839
00000390: b91a 68ba 8e0e 813a 3109 68b9 b866 4c3a
000003a0: b40a 593b bc4d c3ba ffd8 eebb 3485 f9ba
000003b0: 704e 86bb 5633 ee3a 96fc 37ba d946 93bb
000003c0: f014 98ba 1931 2eba 2beb 533b 0384 b03a
000003d0: c6bc cf3a 1c69 0a3b 3ba1 b8ba f3ba c9bb
000003e0: ad4e 513b 5640 73bb 6403 e7b9 a3ef 13bb
000003f0: 7620 7d39 405f 85bb 6fed 0bbb 39af b33a

base_model.model.model.layers.1.self_attn.v_proj.lora_A.weight f4 [1, 2048]
-0.022914235 -0.001755041 0.006323169 -0.011818487 -0.0070016687 0.013758964 -0.0028360314 0.014380537
0.024506345 -0.022176128 0.008946064 -0.008374582 0.0037334373 0.015884964 0.01307651 0.007715128
0.003429795 -0.0059408876 -0.007902479 0.001624771 0.026692305 0.0029853247 -0.020371541 -0.013665854
-0.0077710766 0.01293851 -0.008450837 -0.0014822413 -0.013359126 -0.008933347 -0.0066582416 0.016088342
0.0046781483 0.019612197 -0.0048668534 0.011422857 0.00195989 0.013758647 -0.0053658998 0.019967983
0.00019752077 -0.012238608 0.0019673305 0.012046928 -0.019319445 -0.010136589 -0.0167628 0.015112986
0.0034463839 0.0120119285 -0.023979038 0.024846815 0.017661804 0.022761183 -0.016687945 0.02251764
-0.0064579514 -0.013494779 -0.0069017196 0.012667562 -0.0050515337 0.00843844 0.0071725873 0.0059587313
0.022288436 0.01732136 0.008427695 0.012474683 0.025515776 0.0038337451 0.016022488 0.022964811
0.0042676423 -0.013024969 0.015160666 0.005977191 0.0044661174 -0.0049522445 -0.022274788 -0.016624128
-0.0046803486 -0.015198556 -0.015607742 0.011085417 0.009534355 -0.0021612402 -0.010964024 -0.024371749
-0.003419831 -0.0037469717 -0.0047648433 0.02395315 -0.014319326 -0.0004804379 -0.0173827 0.0075551756
-0.0057958597 0.006408055 0.012465332 0.0173802 0.002447045 0.0135510415 -0.003223428 -0.0031161904
0.008498001 -0.02080842 -0.0134494305 -0.0005802711 -0.0042728805 0.008240486 -0.01751205 0.007438391
-0.0031331615 -0.020687247 -0.0074979784 0.0033278887 -0.0076183486 0.01874737 -0.008335037 -0.003002982
0.0077615622 -0.008323148 0.0055694897 0.013191479 0.0027458228 -0.0060143634 0.021608243 0.004727195
0.015766995 0.0063654687 -0.011403552 -0.0133448625 -0.008179978 -0.02232884 -0.017536813 0.015325867
-0.0011827158 0.002069021 -0.017533068 0.015526925 0.014184929 0.018471355 -0.021855399 0.0024678903
-0.012059631 0.012924257 0.02028195 -0.012643548 -0.019958476 -0.014804847 0.0066732042 0.015663283
0.01592931 -0.0010698463 0.012245019 0.014911795 -0.010277172 3.2176944e-05 0.0057111094 0.023597421
-0.016235616 0.010264277 0.002111497 0.018290147 -0.014948902 0.01931117 0.016094485 0.002748039
-0.004524062 0.011976376 -0.018159162 -0.010089588 -0.016338125 0.013710469 0.018844077 0.0011506365
0.0052244226 -0.0040291455 0.0224745 0.010707176 0.0031433087 0.009943573 -0.021338502 -0.0066896593
0.018274715 -0.0072589046 0.013799576 -0.00602855 0.01755079 0.024884816 -0.018229907 0.020363307
0.0021246984 0.0037872738 -0.0015198915 0.0051930794 -0.0024930015 -0.022865755 0.020056102 0.004322595
-0.005373448 0.0068810736 0.0073185195 -0.017423881 0.028868074 -0.014811761 0.009692336 -0.0082020005
-0.024451708 -0.013424581 -0.007130682 0.0022427305 0.016348902 -0.010473765 0.02404486 0.029002607
0.005195216 -0.0076918146 0.010038539 -0.00660848 -0.013895325 0.015773172 0.0059132352 -0.0041983183
0.019369038 -0.0033966145 -0.004939513 0.0016239698 0.030892244 0.015396461 -0.013133153 -0.01140707
-0.021640163 0.025033945 0.014397946 0.011785858 0.01392487 -0.0126504535 0.008267283 -0.007442009
-0.0063725743 -5.778263e-05 -0.010553952 0.027573815 0.006098325 0.006774178 -0.010516005 -0.025092745
-0.012630487 0.013954613 -0.0110656805 -0.007820876 0.0007372029 0.02177245 0.017779324 0.021708837
00000000: a2b6 bbbc 6709 e6ba 9632 cf3b 54a2 41bc
00000010: 416e e5bb 476d 613c b6dc 39bb 589c 6b3c
00000020: 88c1 c83c b6aa b5bc 8392 123c 8b35 09bc
00000030: afac 743b 2f21 823c dc3e 563c 2fcf fc3b
00000040: 69c6 603b c7ab c2bb 6679 01bc 45f6 d43a
00000050: d2a9 da3c 70a5 433b 38e2 a6bc bfe6 5fbc
00000060: 84a4 febb 0bfc 533c 6175 0abc c447 c2ba
00000070: 3ce0 5abc 2c5d 12bc 612d dabb b3cb 833c
00000080: 274b 993b c2a9 a03c 207a 9fbb ef26 3b3c
00000090: 7f71 003b f36b 613c 6ed4 afbb e593 a33c
000000a0: 941d 4f39 7184 48bc 54ee 003b 7a60 453c
000000b0: d043 9ebc f013 26bc 2452 89bc 759c 773c
000000c0: badc 613b aecd 443c b06f c4bc 8c8b cb3c
000000d0: 7daf 903c a975 ba3c 28b5 88bc ea76 b83c
000000e0: 399d d3bb 3519 5dbc d227 e2bb 9b8b 4f3c
000000f0: 5687 a5bb 6241 0a3c 0608 eb3b 7641 c33b
00000100: 3d96 b63c 86e5 8d3c 5114 0a3c 9d62 4c3c
00000110: 7606 d13c 923f 7b3b 9841 833c b320 bc3c
00000120: 94d7 8b3b ae66 55bc 7164 783c 50dc c33b
00000130: 8258 923b 7046 a2bb 9e79 b6bc 532f 88bc
00000140: 9c5d 99bb 5d03 79bc 9db7 7fbc 9c9f 353c
00000150: fc35 1c3c 98a3 0dbb 73a2 33bc 43a7 c7bc
00000160: 3e1f 60bb c18f 75bb 6722 9cbb 6539 c43c
00000170: 9b9b 6abc 49e3 fbb9 2a66 8ebc 6891 f73b
00000180: 32eb bdbb a9fa d13b 643b 4c3c ec60 8e3c
00000190: 9a5e 203b 3005 5e3c 2640 53bb 0039 4cbb
000001a0: 333b 0b3c 6b76 aabc 005b 5cbc 561d 18ba
000001b0: 8503 8cbb 1a03 073c 6e75 8fbc bfbd f33b
000001c0: ba55 4dbb 4d78 a9bc 9ab1 f5bb b518 5a3b
000001d0: 57a3 f9bb 1694 993c ae8f 08bc adcd 44bb
000001e0: b454 fe3b d05d 08bc 4480 b63b 1321 583c
000001f0: 43f3 333b 2314 c5bb c503 b13c 96e6 9a3b
00000200: c929 813c 6c95 d03b f7d5 3abc 69a4 5abc
00000210: 5005 06bc f9ea b6bc 5da9 8fbc 5819 7b3c
00000220: 5b05 9bba 6a98 073b 82a1 8fbc a564 7e3c
00000230: e867 683c 3d51 973c 180a b3bc 54bc 213b
00000240: c295 45bc 43c0 533c 5526 a63c e226 4fbc
00000250: f57f a3bc 0790 72bc e5aa da3b 4950 803c
00000260: 2f7e 823c 163a 8cba 559f 483c 9a50 743c
00000270: 9561 28bc bbf5 0638 4224 bb3b 614f c13c
00000280: 8e00 85bc 802b 283c 0b61 0a3b 38d5 953c
00000290: 3dec 74bc 7532 9e3c 95d8 833c 7218 343b
000002a0: 953e 94bb 9038 443c 86c2 94bc cd4e 25bc
000002b0: 88d7 85bc e0a1 603c e55e 9a3c f4d0 963a
000002c0: a231 ab3b ec06 84bb 711c b83c 276d 2f3c
000002d0: f8ff 4d3b 5eea 223c 15ce aebc ee34 dbbb
000002e0: dbb4 953c 1bdc edbb 9e17 623c 258b c5bb
000002f0: adc6 8f3c 3edb cb3c e356 95bc f3d0 a63c
00000300: 863e 0b3b e933 783b 1937 c7ba b52a aa3b
00000310: a061 23bb f750 bbbc b24c a43c 8ea4 8d3b
00000320: c013 b0bb a17a e13b 31d0 ef3b 87bc 8ebc
00000330: bd7c ec3c 07ad 72bc 9bcc 1e3c af61 06bc
00000340: f34e c8bc c6f2 5bbc 7fa8 e9bb c6fa 123b
00000350: 22ee 853c 289a 2bbc baf9 c43c e096 ed3c
00000360: a13c aa3b 9e0b fcbb af78 243c f38b d8bb
00000370: 38a9 63bc bd36 813c d0c3 c13b 0c92 89bb
00000380: d1ab 9e3c bc99 5ebb a3db a1bb 62db d43a
00000390: bb11 fd3c 7041 7c3c 702c 57bc b8e4 3abc
000003a0: b646 b1bc fd13 cd3c 5de5 6b3c 7919 413c
000003b0: 2325 643c d943 4fbc 8073 073c 19dc f3bb
000003c0: 07d1 d0bb a05b 72b8 7cea 2cbc 7be2 e13c
000003d0: 75d4 c73b ecf9 dd3b 524b 2cbc 4d8f cdbc
000003e0: 1af0 4ebc e4a1 643c d44c 35bc 2223 00bc
000003f0: d940 413a 235c b23c f2a5 913c bbd6 b13c
