results/checkpoint-12000/adapter_model.safetensors (safetensors, 591064 bytes, 89 tensors)

base_model.model.model.layers.0.self_attn.q_proj.lora_A.weight f4 [1, 2048]
00000000: 9974 583a c1b8 11bb 3d2b 7bbc 0228 15bc
00000010: fcc1 88bc 72ca 97bc 6cb6 393c e568 20bc
00000020: 73ab d2bc 2e47 9dbc 0cba 22bc 59e5 ba3c
00000030: 19bb 41bb f78a 95bc 11ef f6bb 894d 6bbb
00000040: 4fa5 b23c 87ce cebb 4836 64bc 61c2 87bc
00000050: 926f b33c dfa7 80bc 41a3 f6bb b121 603c
00000060: a4e7 20bc bc6f a73c f4da 7bbc 1354 2d3c
00000070: f040 193c 9acc 58bb 23b6 87bc 3e6c d0ba
00000080: b3af cf3b 9f93 b539 bbe9 dcbc 01c5 57bc
00000090: 0ebb 1b3c dea4 283c af99 9aba a642 7e3b
000000a0: f99d 94bc e202 153c 37e6 5ebc d0c0 25bc
000000b0: 353a 9bbb 0be4 b7bb 63d7 d33b 2d52 c4bc
000000c0: d42a c7ba b375 40bc 7e1c aebb d60c 87bb
000000d0: 13f5 9fbb 7fe1 3a3c 5d52 68bc b76e 623a
000000e0: ca32 8a3c bbb2 a33a aede 21bc 6dab 523c
000000f0: 210b cabc 920e 863c 88ce f03b 5ed9 1e3a
00000100: ae0e 733c 8e9b 973c 7c8a 103c 0593 e3bb
00000110: adfd fe3b 29da b03c 9a55 b93b d767 5abc
00000120: 7ef1 263c ac0e ac3c 2ced 7d3c 473c cc3b
00000130: 7263 023c 3575 86bc 1ef2 583b 548a 493c
00000140: 3067 163c bfd6 b03b 6416 b8bb 81d5 a8bc
00000150: 486e 833c 6c3c aabc 031d adbc 5ffe 933c
00000160: 459a 733c e4dd 173c 3e03 d6bb 9b25 2e3c
00000170: 1412 15bc f937 173c 856b c83b c128 573c
00000180: 45e4 98ba 1f95 d03c 1337 c53c d17f 073c
00000190: 90a8 09bc 1665 c83a 48ea b63c 04f2 38bc
000001a0: 3602 2fbb 0539 d93a 4060 b13b d878 713c
000001b0: d64e 3d3c 2e38 2abb 7094 53bb 73d5 4ebb
000001c0: 0a4f 2cbc 5086 10bc 0096 99bc 055f e63b
000001d0: 0fc4 d0b9 b187 9fba 5d1c b73b c134 3fbc
000001e0: a4a6 a4bc 4996 8fbb 0e3b 663b 0dd4 7dbc
000001f0: 5623 52bc e9e7 513c 38ea 08bc 1ce2 683c
00000200: caa7 963c d981 523c ae7e 22bc 1a62 a3bb
00000210: c5f1 5cbc c046 343b 16dd 723c 20d8 a9bb
00000220: b6b6 0c3c fa25 a2bb 3f2d 7b3c 2d5e eaba
00000230: ef7c 9b3b 8acd b23c 0f72 de3b 8c11 5d3b
00000240: c92a 07bc a355 94bc 7497 c23c f6c9 7e3c
00000250: fe73 aeba 3d35 053c e742 4c3c 47c6 593c
00000260: c383 93ba 9efd 893b b243 50bc 23b5 8ebc
00000270: 0aa6 603c a0c2 58bc 0d70 a03c f809 dbbc
00000280: d49d 8fbc 9248 9fbc f760 833c ce91 83bc
00000290: d802 babc 40de 633c 7aac b83a c997 aebc
000002a0: 7e01 423c ab77 a83c 66d7 8b3c 56ea a23c
000002b0: a17c 26bc 86ed 2ebc 360b 0fbc 1a29 dabc
000002c0: 58dc 803c a6b3 b2ba 0240 7c3c b118 a9bc
000002d0: 8f7f 833c 54aa 203c 8be7 5a3c 6bf9 4d3c
000002e0: d76e 573c 3ac6 523c 60d2 123b d52a cdbb
000002f0: 970c a43c f89f a3bc f9f0 253c 098d d7ba
00000300: b4cc 98bb 20e1 8abc 0485 85bb 1127 423b
00000310: b7df 02ba ede6 413b b4c8 78bb 9bca 9cbc
00000320: 5c5d 743c 3d0c 95bc a30a a0bc 6384 03bc
00000330: edd0 273c 9ab7 fcbc ff21 d6bc bf4f fe3b
00000340: 8805 4cbc 10fa 15bc f835 e5bc be76 203b
00000350: 98a3 b7bb 6e2c 18bc d6dd 78b8 d066 a03a
00000360: 8ba4 a43a e0b3 8d3c 0229 17bc 44f9 a73b
00000370: 8231 893b 06d4 cc3b a983 fe3b db5d 173c
00000380: bb3b d43b 4457 9b3c 7be9 3f3c 6647 95bb
00000390: 4add 8fbc f1dc 513c d890 0abc e4ba 7bbc
000003a0: 39fa 933c c578 a7bc 23d6 f93c 3404 06bd
000003b0: 0806 aabc 9e02 753c ce9e 093c 7124 83bc
000003c0: ef36 0a3b 23d4 90bc e07b 8dbc d89b b4bc
000003d0: 6bb3 5abc c86c bbbc f65c 9f3c c29f 9aba
000003e0: a0a7 69bb fbd3 3bbc f9e3 2f3b 9984 593c
000003f0: bcb9 943a e063 b23c 2332 583c 23d3 31bc
0.00082571205 -0.0022235366 -0.015330133 -0.009103777 -0.016694061 -0.01852915 0.011334997 -0.009790634
-0.025716519 -0.01919898 -0.009932052 0.02281444 -0.0029560982 -0.01825474 -0.007535823 -0.003590437
0.02180734 -0.006311241 -0.013928957 -0.01657218 0.021903787 -0.015705047 -0.0075267856 0.013679908
-0.009820852 0.020439021 -0.015372027 0.010579127 0.009353861 -0.0033080936 -0.016566342 -0.0015901399
0.0063380837 0.00034632997 -0.02696692 -0.013169528 0.0095050465 0.010293214 -0.0011795069 0.003879705
-0.018141733 0.009094926 -0.013604692 -0.010116771 -0.0047371634 -0.0056119016 0.006464885 -0.023964966
-0.0015195259 -0.011746812 -0.005313455 -0.004121403 -0.00488151 0.0114063015 -0.014179793 0.00086377136
0.016869921 0.0012489179 -0.009879751 0.012858254 -0.02466351 0.01636437 0.007348839 0.0006059612
0.014835043 0.018506791 0.00882208 -0.0069450163 0.0077817054 0.021588402 0.0056559565 -0.013330421
0.010189412 0.02100309 0.015498441 0.0062327716 0.00795828 -0.01641331 0.0033103297 0.012301046
0.009179875 0.0053966935 -0.0056179035 -0.02060962 0.016043797 -0.020780765 -0.021131998 0.01806563
0.014868324 0.009269211 -0.006531148 0.010629083 -0.009098548 0.0092296535 0.006116333 0.013132275
-0.0011664709 0.025461731 0.024074113 0.00827022 -0.008402005 0.0015288915 0.02232851 -0.01128817
-0.0026704199 0.0016572779 0.005413085 0.014738284 0.0115544405 -0.0025973427 -0.003228452 -0.003156033
-0.010516891 -0.008821085 -0.018748283 0.00703037 -0.00039818927 -0.0012171176 0.005588098 -0.011670292
-0.020098992 -0.004381929 0.0035130414 -0.015492451 -0.012825808 0.012811639 -0.008356623 0.014214065
0.018390555 0.012848341 -0.009917898 -0.00498606 -0.013485377 0.002750799 0.014823219 -0.005183235
0.008588484 -0.004948375 0.015330612 -0.001788085 0.004745118 0.021826524 0.006788499 0.0033732383
-0.008249947 -0.018107241 0.02375386 0.015551081 -0.0013309715 0.008130369 0.012467123 0.013291902
-0.0011254478 0.0042111417 -0.012711452 -0.017420357 0.013711462 -0.013229996 0.01958468 -0.026738152
-0.017531313 -0.019443784 0.016037447 -0.016060736 -0.022706434 0.013907969 0.0014089488 -0.021312611
0.011841176 0.020564875 0.017070483 0.01988713 -0.01016155 -0.010676747 -0.0087307 -0.026630927
0.015730068 -0.0013633862 0.01539612 -0.020641657 0.016052036 0.009806234 0.013360868 0.012571673
0.013148985 0.012864644 0.0022403225 -0.0062612095 0.020025535 -0.01997374 0.010128253 -0.001644523
-0.0046630744 -0.016953051 -0.0040746946 0.0029625336 -0.00049924426 0.0029587105 -0.0037961425 -0.019139579
0.014914837 -0.018194312 -0.019536322 -0.008027169 0.010242683 -0.030849267 -0.026139257 0.0077609713
-0.012452491 -0.009153858 -0.027979836 0.0024484838 -0.0056042187 -0.009287937 -5.933441e-05 0.0012237672
0.0012561245 0.017297685 -0.009226086 0.0051261503 0.00418681 0.006250861 0.00776716 0.0092386855
0.006476847 0.01896251 0.011713381 -0.0045556305 -0.017561574 0.012809024 -0.008457385 -0.015364382
0.018063651 -0.02044333 0.030497616 -0.032718852 -0.020754829 0.014954237 0.008399678 -0.016008588
0.0021089872 -0.01767928 -0.017270982 -0.022046968 -0.013348441 -0.02287902 0.019453507 -0.0011796879
-0.003565289 -0.011464114 0.0026838763 0.013276243 0.0011346857 0.02177614 0.013195547 -0.010853562

base_model.model.model.layers.0.self_attn.q_proj.lora_B.weight f4 [2048, 1]
00000000: aa99 15bc 7185 3a3b 10d5 a4bb 85b7 c3bb
00000010: bae8 6b3b 9baa 373c b5e2 f5bb 1ac6 0a3c
00000020: 2574 abbb 14ff b33b 6bb5 223c 7444 c9bb
00000030: 2f46 9d3b 1e84 a83b 0626 5f3b 7a83 013b
00000040: bd3f 7c3b e841 7e3b 5db3 ef3a 4d76 1ebb
00000050: df21 a63b 3684 803b 3221 963a f714 953b
00000060: 83a4 ccbb b36b a0bb bf4b 93bb d996 adbb
00000070: a666 9fbb 9531 9bbb 5f7f a03b 5e59 a4bb
00000080: 6940 d038 5730 f1bb 7d50 c5bb cbda 88bb
00000090: 4e2d 83bb 92c7 f23b 8a20 32bc 3d28 cebb
000000a0: 63d0 2dbc 1424 293c fbe4 8dbb 2cdc 08ba
000000b0: 1868 86bb c421 38bb 13a1 033b ccf5 73bb
000000c0: d090 2fb6 1c91 363b 2147 4e3b c2fa b13b
000000d0: 12bb e63a 7359 c7bb ec27 58bb 234d cbbb
000000e0: 147f 9cbb 4a7c ba3b 460b b03b 95c2 9cbb
000000f0: 44f6 aa3b aded a1bb d467 a5bb dbed a2bb
00000100: 882a 8cba 5ec6 b1ba 3cdb b63b 1cd8 30bb
00000110: aec7 bb3b bcf1 d5bb 157b 79ba b1e8 9f3b
00000120: 81a6 b4b9 0691 b53b 129c b4b8 ac7c 18ba
00000130: 114f 96bb a9aa 9f3b e016 233b 7a4f 64bb
00000140: 0a7d a53b b2fe da3b 2371 033c c42f b5bb
00000150: da3b bcbb 321a b93b ee33 023c 0283 11bb
00000160: eeea b03b 839a 0d3b ef84 173b 8995 7d3b
00000170: ee2c 2b3b a678 643b 8ed6 35bb 2609 5b3b
00000180: 972a ae3a 58fc beba 9daf c4bb 6f7f a5bb
00000190: 80b3 62bb 60b7 953b dd19 583a d29e e5bb
000001a0: b12f 04bb 6c57 113a 2d18 2ebb f6b0 c83a
000001b0: f30d 1eba d221 4b3a b445 af3a 9b4e 14ba
000001c0: 0b07 8ebb 20a6 30bb 3ad9 dc3a bd51 093c
000001d0: 44ba bd3b f3ac b8ba 0f50 c63a 46fa c13b
000001e0: 371c 1f3b 2868 94bb f71e 86bb 9915 213b
000001f0: 96e7 70bb d87c 303b 320e 603b be81 3c3b
00000200: 2cae 103b cb32 d5bb 12e1 953b 5fbf 09bc
00000210: 324d b03b 2af4 61bb 6740 39ba 276f f6bb
00000220: 7f91 133a 3050 29bb 9c35 953b 7e80 12ba
00000230: 56d3 11bb 1451 1b3b 0f48 883b ea84 003c
00000240: dc69 4b39 e6f0 c83b 05c5 e4bb 4c71 0abc
00000250: fb78 123b 2563 f7b9 7b00 983a 57e1 cab9
00000260: eb51 b4bb a6e2 9aba 83db b1b9 ed34 50bb
00000270: 6327 caba 8fbf 03bb b485 ef3a cead 1abb
00000280: 73ab b4ba 32cd 243c 06c9 e0ba cedb 1d3a
00000290: c66a 51ba caf3 463b 0064 1f3a 8ec2 9bba
000002a0: 753a bc3a de0c 91bb a472 a83a 57db 73bb
000002b0: 7c39 8abb 77cd 45bb e420 263b be2e dcbb
000002c0: f777 6b3a e791 003c 2389 4c3c df72 ec3a
000002d0: a9cb 39bc 24f0 aebb d376 a03b 37c3 c4bb
000002e0: 0215 72ba f6f0 853b ac2c 5f3b 2abc a4ba
000002f0: 5de6 3f3b 21f0 edba 735d 23bb df48 06bb
00000300: e29a 3abc 3581 f63b b3c1 05bc 4a22 1abb
00000310: c59d c73b 200a 993b eaec e2bb d257 d13b
00000320: ecba ccbb 6039 c73b 25fc 043c 3b9e e7bb
00000330: 1eb8 d73b 8b34 183c 8441 b73b 553e 223c
00000340: 4771 b63b 1074 b93b 0f63 b13b 98d6 27bc
00000350: 8cd3 113b ae48 a83b 7409 303c 5fe8 ac3b
00000360: 4105 a8bb 9cbf b1bb 69ee afbb abd1 adbb
00000370: 69cd b0bb 121b adbb 4d97 b03b 4102 afbb
00000380: d03c 0bbb 9934 03bc 5bb1 12bc d32e 09bc
00000390: 4c6c 20bb 865e bc3b 426f b9bb e82e e0bb
000003a0: 929b f2bb 74b9 fb3b 00ed b3bb 98fe 0c3b
000003b0: 352f c8bb f1c0 a5bb ca42 9f3b 4c42 b5bb
000003c0: 01da 0e3c 265a fc3b 0c1b 103c fd07 d43b
000003d0: fd8d a83b cc6a cdbb 2039 a7bb a34e 44bb
000003e0: c4cd aebb 52fa a93b e028 ad3b 58e7 b0bb
000003f0: 2434 ae3b a126 b1bb c0b7 aebb 4e9b b0bb
-0.009130875 0.0028460885 -0.005030282 -0.005972805 0.003599687 0.011210109 -0.007503832 0.008470083
-0.0052323514 0.005493054 0.009930949 -0.0061421935 0.0047996263 0.0051427027 0.0034049763 0.0019762204
0.003849014 0.0038796607 0.0018287707 -0.00241794 0.0050699557 0.003922011 0.0011453985 0.0045496183
-0.0062451973 -0.0048956512 -0.0044951136 -0.0052975235 -0.0048645316 -0.0047361352 0.0048979963 -0.005015536
9.93021e-05 -0.007360499 -0.006021558 -0.004176473 -0.0040032035 0.0074090445 -0.010872016 -0.006291418
-0.010608765 0.010323543 -0.004330275 -0.00052207964 -0.0041017644 -0.0028096298 0.0020085021 -0.0037225364
-2.6161324e-06 0.0027857488 0.0031475502 0.005431504 0.0017603359 -0.006083661 -0.003298278 -0.006204264
-0.004775891 0.005691086 0.0053724376 -0.004783938 0.0052173454 -0.0049416632 -0.0050477777 -0.0049722022
-0.0010693828 -0.0013563146 0.005580334 -0.002698428 0.005730591 -0.006529061 -0.0009516937 0.004880034
-0.0003445633 0.00554097 -8.612139e-05 -0.00058169174 -0.004587062 0.004872639 0.002488546 -0.003483741
0.005050306 0.006683194 0.008022579 -0.0055293757 -0.0057444395 0.0056488747 0.007946951 -0.002220333
0.0053990996 0.0021606989 0.0023120006 0.0038693866 0.002611931 0.003486195 -0.0027746293 0.00334222
0.0013287839 -0.0014571054 -0.00600238 -0.0050505917 -0.0034591854 0.004568979 0.00082436 -0.0070074582
-0.0020170028 0.0005544338 -0.0026564703 0.0015311528 -0.00060293 0.0007748875 0.0013372214 -0.0005657465
-0.0043343357 -0.0026954487 0.0016849407 0.008381304 0.005790027 -0.0014089629 0.001513006 0.0059197275
0.0024278292 -0.004529018 -0.0040930468 0.0024579524 -0.003675913 0.0026929881 0.0034188149 0.0028763856
0.002207647 -0.006506299 0.0045739496 -0.008407443 0.005380296 -0.0034477809 -0.00070667866 -0.0075205746
0.00056292856 -0.002583515 0.00455351 -0.0005588605 -0.002225121 0.002369945 0.0041589807 0.007844189
0.00019399024 0.006132233 -0.0069814944 -0.008449864 0.0022349942 -0.0004718538 0.0011596823 -0.00038696334
-0.0055029294 -0.0011816814 -0.0003392362 -0.0031769827 -0.0015423115 -0.0020103191 0.00182741 -0.002360213
-0.0013784006 0.010058688 -0.0017149753 0.0006021828 -0.0007988628 0.0030357712 0.000608027 -0.0011883543
0.0014360683 -0.0044265827 0.0012851548 -0.0037209594 -0.0042182785 -0.003018228 0.0025349194 -0.0067194393
0.0008982415 0.007847286 0.012483868 0.0018039605 -0.01134006 -0.0053386856 0.0048969775 -0.0060047167
-0.0009234698 0.0040875627 0.0034053726 -0.0012568284 0.0029281594 -0.0018153229 -0.0024927526 -0.0020490212
-0.011389466 0.007522727 -0.008163857 -0.0023518973 0.0060918056 0.0046703964 -0.006925215 0.006388643
-0.0062478688 0.0060798377 0.008116757 -0.007068423 0.006583228 0.009289871 0.005592527 0.009902556
0.005567703 0.0056595877 0.00541342 -0.010244034 0.0022251336 0.005135617 0.010744441 0.005276724
-0.0051275794 -0.005424453 -0.005368997 -0.0053045354 -0.0053955805 -0.005282768 0.00538913 -0.005340845
-0.0021245964 -0.008008146 -0.008953418 -0.00837298 -0.0024478612 0.0057485728 -0.005659015 -0.006841529
-0.0074037993 0.00768202 -0.005490899 0.0021514054 -0.006109143 -0.005058401 0.004860257 -0.005531585
0.008718968 0.007701176 0.008795511 0.006470679 0.0051438794 -0.0062688347 -0.0051032454 -0.0029954098
-0.005334588 0.005187311 0.0052844137 -0.005398672 0.0053162742 -0.0054062163 -0.0053319633 -0.0053896075

base_model.model.model.layers.0.self_attn.v_proj.lora_A.weight f4 [1, 2048]
00000000: 1bc4 fbbb 18d8 56bc d8e7 53bc 1509 34bc
00000010: 0da8 283c 23f9 8bbc c2e8 f03c fb4f a8bc
00000020: dcb4 203c 8338 ce3c 2ff7 30bc fbe7 81bc
00000030: e70a d4bc ac1b babb 951a eabb 074c cfbc
00000040: c775 56bc 0392 12bc ae95 273c e666 d1bb
00000050: 79d4 03bc 1e3d cbbb 6606 d0ba 169b 443b
00000060: f3c6 6a3c 3adb 5dbb be38 963b 5fb1 803c
00000070: c19e 68bc 52b1 213c a382 89bb 89f7 543c
00000080: 82f1 9c3c efb3 f33b 10ba d63b c9c3 a83c
00000090: e918 4bbb 453a d83b 7604 aa3c bfa4 efbb
000000a0: b5be f2bb f25f 4f3c 9c4b 013d 6f18 e03c
000000b0: 17aa 74bc 9bba 823c aaa3 fa3b 24e4 1fbc
000000c0: 1209 9e3c cd0e babc 06ba 023b a767 1f3c
000000d0: 0b77 083c 18cd b7bb 8e45 f5ba 8a51 92bc
000000e0: c884 ddba 7462 80bc b765 833c d115 093c
000000f0: 6491 463b c2bb 67bc 81e0 913b 3954 963b
00000100: bd18 adbb 95c0 38bc 7f45 c639 8043 a6b8
00000110: 0c42 37b9 ce19 143b f388 83bc b4a3 92bc
00000120: fcc9 14bc 590b bdbb 90ad bd3c 563a 91bb
00000130: 2da1 a3bb 5ea5 3ebc 2b3e 113b 82af ca3c
00000140: f56b dbbc 1c27 0d3c 9d17 b63c 545e 0a3c
00000150: 36c1 bb3b a667 8a3c 471c abbc cc01 9abc
00000160: 2f32 cb3a 56bf 0ebc 7e58 44bb 7bea cb3a
00000170: 246b 1abc 1a0e 893c b9f8 6cbc 4a63 9e3c
00000180: f58a 8dbb c049 af3c e1de 9c3c ca70 4fbc
00000190: 5a50 b4bc db7b 293c 9709 8c3c b425 663b
000001a0: 4e6c 9b3b 9d8d b7bb 63dc e0b9 3e21 6d3c
000001b0: 46d5 8b3a 7861 a7bc ced4 d33b 0544 1fbc
000001c0: 5ff0 863c 2e60 0fbd e80e 36bc df14 aebc
000001d0: 52cb 1ebc ec6f 76bc 9307 e9bb 1157 4fbc
000001e0: c313 8c3c 66ac 863c a61e 2a3b d10e 6dbc
000001f0: 4b48 d6bb de6f c2bc ac12 b4bb f75e 6ebc
00000200: 96e3 b3bc 1664 bb3c 582d 883c 52f7 753c
00000210: ed16 3d3c d8c2 e93c 303a e7bb 2a1b 4e3a
00000220: 03d1 f1bb c374 0dbc 6921 b8bc d176 753c
00000230: 812f 6bbc e614 4fbc bb9f 763c 4b26 90bc
00000240: 8ab4 50bb f95c c8bc 6c4b 1ebc 930b 993c
00000250: 26c3 db3a 2c5d 6ebb 4100 edbb 3013 203c
00000260: 5f45 983c e274 0c3c 9103 9abc 3ede 17bb
00000270: 077b 253b 7115 3c3c c96a dd3c e13d 883c
00000280: 6685 3a3c f21c 9dbc 3666 02bc 61ff 683c
00000290: ff04 a1ba dd7a fe3b 244e ff3b d372 c8bc
000002a0: 1d87 92bb e6ac 69bc 832c 2dbb 3880 d639
000002b0: 6637 ab3c 8942 dc3b f175 a13c 37c6 08bd
000002c0: afd8 b53a a402 18bc ac77 6fbc 1917 653c
000002d0: df4a c43c cef5 babc a139 95bc efea 34ba
000002e0: 2ac0 5fba 3979 af3c 848f de3b ae8c 0e3c
000002f0: a3bd 2fbc 4bc0 a63b 1054 20bc 0b26 5fbc
00000300: 5c99 b8bb 586d c73b 2e2b f3bb 388e 92ba
00000310: 0453 653c 9a03 d83c 21b6 0cbb c9cd d33c
00000320: 1ca4 d1b9 79ff 7fbc 88d2 bf3c d76d 96bb
00000330: 8baa 213b 1073 11bc 63df 583c 0c5f 40bc
00000340: 9372 12bc 3986 0f3c 1c1d 88bc 8ddd 2f3c
00000350: 53ad ae3c ae72 113c 0099 e9ba 6898 dbbb
00000360: cdda 9fbc db72 9abc 73e3 66bc 3942 5a3c
00000370: 950a b33c a6ca 0c3c fb83 f739 e2be 633c
00000380: 6f06 1ebb 1dc1 9fbc 7d7e 6c3c 9108 14bc
00000390: 067a 82bc 8d39 4b3c bd99 33bc 1c55 26bc
000003a0: 20a2 4fbc dea6 fbbb e7c3 553c f721 afbc
000003b0: 99b5 a5bc e484 54bc 7a16 7e3c e4a9 a3bb
000003c0: 711b 65bc 24d5 be39 843c 893c 64cd 1d3c
000003d0: c587 093b a52b 393c 9a04 4f3b 43b7 983b
000003e0: 7dd5 193c 38e6 f73b 95b5 5f3a 2b16 a33c
000003f0: 9ad2 2e3c 77f9 69bc b815 1c3c 08e5 8fbc
-0.0076832897 -0.013113044 -0.012933694 -0.010988493 0.010293973 -0.017086571 0.029407863 -0.02054595
0.009808745 0.025173431 -0.010801121 -0.015857687 -0.025884105 -0.0056795683 -0.007144282 -0.025304807
-0.013089604 -0.008945945 0.0102285575 -0.0063904403 -0.008046263 -0.006202354 -0.0015871048 0.0029999665
0.01432966 -0.0033852593 0.004584401 0.015709577 -0.014198006 0.009868937 -0.0041964813 0.01299847
0.019158129 0.0074372212 0.006552942 0.02060117 -0.003099019 0.006598743 0.02075408 -0.0073133404
-0.007407988 0.0126571525 0.031566247 0.0273554 -0.014933131 0.015958121 0.007648905 -0.009758983
0.019291434 -0.022712136 0.0019947304 0.0097293025 0.008329163 -0.005609166 -0.0018712746 -0.017861146
-0.0016900534 -0.015671946 0.016039712 0.008367018 0.0030299062 -0.014143886 0.004451812 0.004587677
-0.00528249 -0.011276384 0.00037817282 -7.92807e-05 -0.00017476844 0.0022598389 -0.016056513 -0.017900325
-0.00908136 -0.005769175 0.02315405 -0.004432003 -0.004993579 -0.011636106 0.00221623 0.024741892
-0.026784876 0.008615281 0.022228057 0.008445341 0.0057298196 0.016895127 -0.020887507 -0.018799685
0.0015502627 -0.00871261 -0.0029959972 0.0015557552 -0.009424958 0.016730357 -0.014463597 0.019334454
-0.0043195435 0.021397471 0.019149246 -0.012661168 -0.02201097 0.010344471 0.017094417 0.0035117688
0.0047431355 -0.0056015984 -0.0004288881 0.014473258 0.0010668419 -0.020432219 0.0064645773 -0.009720807
0.01647204 -0.035003833 -0.011111952 -0.021250186 -0.00969203 -0.015041333 -0.0071114986 -0.012655036
0.017099267 0.016439628 0.002595821 -0.014468865 -0.0065393797 -0.023734983 -0.00549539 -0.014549009
-0.021959107 0.022874873 0.016623184 0.015012579 0.01154111 0.028535292 -0.007056497 0.0007862324
-0.0073796525 -0.008633795 -0.022476869 0.014981941 -0.0143545875 -0.01263926 0.015052731 -0.017596385
-0.003184589 -0.024458395 -0.009661537 0.018682277 0.0016766533 -0.0036371453 -0.0072326963 0.0097702
0.018587766 0.008572789 -0.018800529 -0.0023173238 0.0025250332 0.011479721 0.027028458 0.016631069
0.011384344 -0.019178841 -0.007958939 0.014221043 -0.0012284814 0.0077661113 0.0077912975 -0.024468815
-0.004471673 -0.014262414 -0.0026424236 0.0004091279 0.02090044 0.006721799 0.01970956 -0.033392157
0.0013873781 -0.009277973 -0.014615934 0.013982558 0.023961483 -0.022822287 -0.018215956 -0.0006901463
-0.00085354096 0.021420108 0.0067920107 0.008700533 -0.010726365 0.005088841 -0.009785667 -0.01361991
-0.0056335162 0.006086033 -0.007420919 -0.00111813 0.013996843 0.026368905 -0.0021470862 0.025854962
-0.00039985857 -0.015624874 0.023415819 -0.0045907306 0.0024668302 -0.008877531 0.013236853 -0.011741411
-0.008938449 0.0087600285 -0.016615443 0.010733974 0.021322882 0.008877439 -0.0017822087 -0.006701518
-0.019513512 -0.018853595 -0.014092314 0.013321453 0.021855632 0.008593237 0.00047209844 0.0139004905
-0.0024112721 -0.019501263 0.014434454 -0.0090352455 -0.015927326 0.012403858 -0.010961947 -0.010152128
-0.012672931 -0.007679804 0.013047195 -0.0213785 -0.020228194 -0.012971137 0.0155082885 -0.004994618
-0.013983593 0.00036398426 0.016752489 0.0096314885 0.0020985466 0.01130191 0.0031588436 0.0046605184
0.0093892785 0.007565286 0.0008533833 0.019908031 0.0106703285 -0.014280668 0.0095266625 -0.017565265

base_model.model.model.layers.0.self_attn.v_proj.lora_B.weight f4 [256, 1]
00000000: 1d7e 013b d610 16ba 65c4 213b 317a 3cbb
00000010: d2b4 49ba a81a 2fba bbc7 c03b 35f7 1a3b
00000020: 424a c63a 4c9a 33bb 108f d8ba 9b87 7a3b
00000030: c5d9 d1bb 2d8b ef3b b6ac 9c3b 2e65 f43a
00000040: b327 b23a aab1 71bb e23b fb3a 2bf3 e93b
00000050: e243 8cba 6915 5dbb dc4d 4f3b 3f81 b4bb
00000060: f4eb 963a 8414 c3bb e02d 3bbb 2843 153c
00000070: 51da fdba db4a e5ba 310e 4bba d088 a03a
00000080: d7b2 4c3b 9fef 43bb 0915 4d3b 960f d23b
00000090: 0670 5ab9 ab4a 9dbb 9871 983a ba3d 913a
000000a0: cbf8 12bb 7e69 daba 90c7 873b 2973 3a3b
000000b0: fa46 bd3a 05ae 8abb 87d3 f13a 745f 5b3b
000000c0: 6709 9ebb c22d f9bb 4572 debb 590d 0a3b
000000d0: 2b7f 4f3b b1ce 0cbb 7a1f f0bb 4fcb f3ba
000000e0: b74f ec3b 4df6 e9ba 159f 2bbb 15c9 c33b
000000f0: fd9d b3bb f956 253b 45dd b7bb c005 97bb
00000100: 8e0a 87ba 1977 7f39 28e4 cb39 d7cb 883b
00000110: ea26 c939 cb83 3739 e6c0 7dbb 6395 9fba
00000120: 01a4 643b b8b7 b73a 9949 b2bb cfa4 aeb8
00000130: e9e3 393b 999a 68ba 3ee8 0c3c 6fa8 40bb
00000140: 564e fbba 8968 323a 5523 bb39 afbd 8d3a
00000150: 63bb a03b 71af 9cbb 69dd b2ba 1a8f 0a3c
00000160: 950e a73a a795 99b9 362e 0aba 9143 323b
00000170: 7883 7e3b 89b7 63bb 85ef babb 8bf9 bf3b
00000180: 02a8 23bb f5f5 c3ba 4d13 843b d955 aaba
00000190: 0f74 ffba cf4b 9a3b 517f 693b 8e66 3438
000001a0: 7f95 3fba 00e0 183a 8c49 cd38 9b24 bf3b
000001b0: 6deb 6b3a 85e2 67bb e9c6 583b 6965 eebb
000001c0: 9ee8 e83b e840 643b c41f ceba 5169 c9ba
000001d0: d1f4 033c 973e d43b cd6b 9cbb 7bb5 1f3c
000001e0: 9729 cfba 3690 f33a 64cf 8aba 435e debb
000001f0: 66f4 30bb 790a 603b 8348 a5bb dfa4 6dbb
00000200: b18b 0cbb 0071 4c3b 8c15 843b b416 25bb
00000210: c48a 413b 9c8e 46bb 2ad3 1ebb 8b34 073c
00000220: be0f c93b 2e2d de3a 2d4a cc3a ab94 75bb
00000230: d281 763b 72d5 c4bb 0f04 0e39 94c1 68ba
00000240: 64d3 a53b b71d 4abb 2176 a3bb 09f1 9eba
00000250: 4129 fdba 767e 673b 8be2 0ebc 58bf aa3b
00000260: 8028 10bc b304 3bbb d1e4 e9ba 1c0c 99b9
00000270: 77e0 0c3b 2cee 2e3b 9cb9 053a eb09 b8bb
00000280: ba22 60bb 948e 433b cd3a 8f3b e804 253b
00000290: 6b12 803b c0df d0ba 8de4 ccba e7ca b43b
000002a0: d3c6 503a d494 8a3b 43b4 be3a 48d8 45bb
000002b0: 8e45 a33b 4708 333b 98fa ceba de0f 9abb
000002c0: 632b 5dbb a30b 88ba a0db 553a ec83 4ebb
000002d0: 3100 903b 9ebb ee3b a814 213b 4b39 02bc
000002e0: 6d77 633b e8cd 97bb 7424 273b cef0 0eba
000002f0: 9909 bdbb 27b7 4b3b 7efc e23b cf87 26bc
00000300: 5d2a a43a 4584 a13b 732d 843b cfb9 743b
00000310: 18cf 63bb 83e0 463b f764 eb3a 56fb bb3a
00000320: 1d19 553c cea7 89b9 a0d5 f33b 588f e13a
00000330: 6063 0cbb d8ee b53b c249 fa3a da7c 353b
00000340: f749 763b 8c49 4fbb 5b24 e93b c50a 963b
00000350: eddb 74b9 0533 fc39 c148 edbb ca67 1abc
00000360: ed4d 8b3b 18f0 833b 7a38 9dbb 6793 a6bb
00000370: 77be e23a c462 983b 52de d63a 81e7 a33b
00000380: 33ab b4bb e751 983b 6da9 593b 0589 0b39
00000390: 8528 fdba a35d 363a 5b4d b23a 6028 deb9
000003a0: 3bf3 cabb 51bb 3b3a f0bb 9dbb e7ae 1d3b
000003b0: 503c ebba b29d a539 c6e6 f7bb 1baf cebb
000003c0: c488 243b 2f14 873b e138 ab3b 805d 2a3b
000003d0: 0e80 893a 08c9 f83b 1dbb 42ba 8879 b8bb
000003e0: e7a4 6b3b bad2 bebb bcc5 4abb 6f41 0c3a
000003f0: 5d2e 1f3c 53b3 deba ba97 31bb baff 553a
0.0019759007 -0.00057245546 0.002468371 -0.0028759355 -0.0007694486 -0.00066796923 0.0058831847 0.0023645882
0.0015128332 -0.00274052 -0.0016522128 0.00382278 -0.006404134 0.007310292 0.004781331 0.0018645877
0.0013592154 -0.0036879578 0.0019167627 0.0071395836 -0.0010701383 -0.0033734685 0.00316321 -0.0055085714
0.0011514411 -0.0059533734 -0.002856128 0.00911025 -0.0019367432 -0.0017493622 -0.000774595 0.0012247805
0.0031234527 -0.0029897464 0.0031293056 0.0064105494 -0.00020831832 -0.004800161 0.0011630533 0.0011081018
-0.0022426124 -0.0016663519 0.0041436628 0.0028449988 0.0014440708 -0.0042321705 0.0018449881 0.0033473643
-0.004822898 -0.0076043317 -0.0067885243 0.0021065085 0.0031661491 -0.0021485502 -0.007327971 -0.0018600019
0.007211651 -0.0017849893 -0.002618735 0.0059748986 -0.00548148 0.0025228842 -0.005611094 -0.0046088398
-0.0010302828 0.00024363062 0.00038889167 0.00417469 0.000383667 0.00017501337 -0.0038719713 -0.0012175258
0.0034887793 0.0014016544 -0.0054409024 -8.3276645e-05 0.0028364605 -0.00088731345 0.008600293 -0.002939727
-0.0019173126 0.0006805738 0.00035693744 0.0010813976 0.0049051507 -0.0047816564 -0.0013646308 0.00845697
0.0012745435 -0.00029293934 -0.0005271168 0.0027200917 0.0038835686 -0.0034746847 -0.0057048225 0.0058586053
-0.0024971967 -0.001495062 0.004030621 -0.0012995555 -0.0019489544 0.004708744 0.0035628865 4.3010856e-05
-0.00073083484 0.00058317184 9.788861e-05 0.005833221 0.000899962 -0.003538282 0.0033077544 -0.0072752726
0.0071078083 0.0034828726 -0.001572602 -0.001536647 0.008053974 0.006477188 -0.004773593 0.009747858
-0.0015805241 0.0018582407 -0.0010590372 -0.006786139 -0.0027001142 0.003418593 -0.0050440445 -0.00362616
-0.0021445567 0.0031195283 0.004030889 -0.0025190534 0.0029532174 -0.0030297404 -0.002423475 0.008252273
0.00613591 0.001695072 0.0015586071 -0.0037472646 0.0037614 -0.00600689 0.00013543687 -0.0008878943
0.0050606 -0.0030840465 -0.0049884473 -0.0012126277 -0.0019314663 0.003532318 -0.008721004 0.0052107982
-0.008798718 -0.0028536736 -0.0017844682 -0.00029191456 0.0021496096 0.0026692254 0.00051012053 -0.0056164167
-0.0034200386 0.0029839622 0.0043710233 0.0025179926 0.0039084456 -0.0015935823 -0.0015632078 0.005517352
0.00079641974 0.0042291675 0.0014549572 -0.0030188728 0.004982657 0.0027318166 -0.0015791235 -0.0047015985
-0.0033747784 -0.0010379445 0.0008158032 -0.0031511737 0.004394554 0.0072855493 0.0024578962 -0.00794823
0.0034708634 -0.0046327002 0.0025503905 -0.0005452753 -0.0057689664 0.003108451 0.006927072 -0.010164215
0.0012524832 0.004929098 0.0040337383 0.0037342196 -0.0034760889 0.0030346222 0.0017959167 0.0014341872
0.013006476 -0.000262557 0.0074412376 0.0017208857 -0.0021421537 0.005552154 0.0019095468 0.0027692826
0.0037580708 -0.003162953 0.0071149296 0.0045789205 -0.00023351582 0.00048103198 -0.007241339 -0.009424159
0.004251233 0.004026424 -0.0047979923 -0.0050834897 0.0017299195 0.0046504457 0.0016393161 0.0050019627
-0.0055135726 0.0046484354 0.0033212558 0.00013307117 -0.0019314444 0.0006956702 0.0013603376 -0.0004237322
-0.006193546 0.0007161396 -0.0048136637 0.0024060549 -0.0017947052 0.00031588745 -0.007565352 -0.0063074953
0.0025105933 0.004122279 0.0052252864 0.0025995672 0.0010490434 0.007592324 -0.0007428395 -0.005629722
0.0035956444 -0.0058234604 -0.0030940613 0.00053503265 0.009715644 -0.0016990699 -0.0027098493 0.00081634114

base_model.model.model.layers.1.self_attn.q_proj.lora_A.weight f4 [1, 2048]
00000000: 2bf3 a5bc b4ac 973b 4370 423c 3493 e33c
00000010: 59a1 463c eb62 0dbc 76f1 cf3c a135 d2bb
00000020: 7c9c 873b 6fda fd3b d5d2 76bc c248 933c
00000030: 5840 e43b 8cba 883c 2056 faba 41d7 42bc
00000040: 0335 153c d7b8 41bb 32ad 8b3c 8c35 5c3b
00000050: f7ba 5abb dd0f 0f3c f0f6 3b3c 7ce5 af3b
00000060: 78ee a93c 5b44 963c a626 7abc 1180 51bc
00000070: c27e a1bc b6ab 67bc 9bda 3d3c 750b 6b3c
00000080: b3a9 fbbb 9f83 72b8 0ea0 a9bc 972b 9abc
00000090: 8c6f 123c 602a 143c f1c7 b33b e2b1 e8bb
000000a0: 9b53 3c3c 46a2 c63b 668c 57bc 21e5 ae3c
000000b0: 0b40 b8bb 9d69 cbbb bdf8 48bc 1c95 b83c
000000c0: d000 963c dd59 43bb ef0a a0bc 6f13 c5b8
000000d0: 8e3d c2bc e78b c8bb 1970 b13c 227b 8e3a
000000e0: 1348 81bc 1bb4 15bc b987 813b aaab da3b
000000f0: abaf 80bc 6a65 14bc 4362 563c 9740 2f3c
00000100: efee 873c a896 003b 75ac 22bc 06fc 88bc
00000110: 6382 043c f15e 853c 555b 643a e3a3 b6bc
00000120: caf4 9c3c 8f5e 073c 60b7 1d3c 3ae3 9b3c
00000130: 8d29 0ebc 90a8 173b efe1 5c3b 424b 8c3c
00000140: 260f 4d3c 7ad6 efbb fecc 893c b49a 8d38
00000150: b579 0fbc f212 053c 53f7 8e3c 186a 9ebc
00000160: 9cc0 683c 989d c0bc f434 42bc f9ee 96bc
00000170: c05b a13c b86e 7d3a 13a2 74bc 6004 a4bb
00000180: fb94 8a3c 5d18 9c3c 4124 7f3a c4f9 523b
00000190: 3cd4 dbbb 5f06 7d39 3b11 cd3b 1b28 b1bc
000001a0: b101 8e3c 2cf3 2b3c d06b ab3c d2b4 3f3b
000001b0: 00f9 05bc 73a7 ae3c 7ed6 51bc 860b a9bc
000001c0: eb15 ea3a b7b1 5e3b 5e66 693c 2c37 e23a
000001d0: 311f 303b 9168 073c a0f0 79bc 709e 87bc
000001e0: e6ab dabb a36e af3a db21 12bc 07c6 46bc
000001f0: 880a ec39 0832 ba3c 0e07 953c af04 01bc
00000200: 3d52 f2bb b347 b0bc 4f08 b03b 03ad b1bc
00000210: 3c4b 343c 5a61 0c3c 3d8b 403b 3a56 7539
00000220: 98c9 3c3c a31e 98bb 007d 7c3c 8fdd 333c
00000230: 1add c93b 9c9a 083c a71e c6bc d38c 5fba
00000240: c375 8abc b61c 00bc 2b78 28bc e175 bd3c
00000250: d74e 97bc 4fd6 22bc 0dd2 f43b ecd1 5abc
00000260: 0eda 2cbb 020d 85bc 3d87 30ba 78e2 883c
00000270: 14fc 8c3c e44b 36bb 665a 52bc c6e3 f33b
00000280: 63b6 063b 4726 293c 1929 303c 7d67 22bc
00000290: b4db aa3c 6ce0 a8bc 735c b33b 4d84 45bc
000002a0: 285f 7cbc e8e5 8c3c 0fc1 6d3c e8f5 1b3c
000002b0: cf0d bdbb 7071 5cbc b90c 44bc cdc2 07bc
000002c0: 9026 a5b8 d70a 8e3c c7b9 823b b662 0fbc
000002d0: 6b94 903c 6926 46bc 771a 7a3c 318f 9e3b
000002e0: 1a2f fbbb 63dd b83b 7955 9cbc 880a ab3c
000002f0: 1657 133c eaf3 953c 6008 2e3c e96a 5e3c
00000300: 6035 c03c 2335 d839 cb1e 863a 123d 72bc
00000310: a2d0 633c 51d6 e73b 3ff9 a8bc f128 563c
00000320: c14c e7bb 009e 843b 9c10 13bc dd3d d13c
00000330: c428 0f3c 77ee 843c 7796 b5bc c071 3ebc
00000340: 4807 d03b 1315 03bb 8771 83bc 8b7d 893b
00000350: c01a 0bbc a196 e1bb 2371 183c 955d 0a3a
00000360: 988e b93c 6689 babb a29e aa39 9456 423c
00000370: 4bb8 8cbc 4b6b 4c3c dec2 6abc afa3 8abc
00000380: 0919 8abc f083 923c 27e9 88bc ef6c 9e3c
00000390: ef60 81bc 3b71 783c 5c77 9abc e345 bdbc
000003a0: c597 9b3c 2f3b 093c 7870 1d3b 3493 b8bc
000003b0: 2f42 4c3c 47d8 843c 3dd8 12bc f5a9 e1ba
000003c0: 01d9 3f3c d153 193c 2741 0b3c fd0a e63b
000003d0: e160 6bbc 2325 213c 296b 093c 888b 233c
000003e0: 2c6f 99bc 9c96 883c b632 a1bc 425d 713c
000003f0: b01d 373c 40b9 603a 5e91 7f3c 0d34 54bc
-0.020257553 0.004628742 0.011867586 0.027780153 0.012123429 -0.008629541 0.025383692 -0.0064150845
0.0041385274 0.0077469866 -0.015064915 0.01797903 0.006965678 0.016690515 -0.0019099154 -0.011892141
0.009106877 -0.0029559636 0.01705036 0.0033601252 -0.00333756 0.008731809 0.011472449 0.005367933
0.020743594 0.018343141 -0.015268004 -0.012786881 -0.019713763 -0.01414006 0.011587764 0.014345993
-0.007680142 -5.7819878e-05 -0.020706203 -0.018819613 0.008937728 0.009043306 0.0054864814 -0.0071012834
0.0114945425 0.006061825 -0.013156032 0.021349492 -0.005622869 -0.0062076584 -0.012266335 0.022532038
0.018310934 -0.0029808201 -0.019536464 -9.397312e-05 -0.023710992 -0.0061201933 0.021659898 0.0010870437
-0.015781438 -0.009137179 0.003952947 0.006673296 -0.015708765 -0.009057382 0.013084951 0.010696552
0.016593425 0.0019621048 -0.009928812 -0.016721737 0.008087727 0.016280623 0.00087111193 -0.022294944
0.019159693 0.008262291 0.00962624 0.019029249 -0.008676899 0.0023141243 0.0033704003 0.01712573
0.012515819 -0.007319269 0.01682138 6.7522196e-05 -0.008757045 0.008122193 0.017451918 -0.019337699
0.014206078 -0.023512647 -0.011853445 -0.018424498 0.01969707 0.00096676825 -0.01493122 -0.0050054044
0.016916743 0.019054586 0.000973288 0.003219233 -0.00670865 0.00024130334 0.0062581575 -0.02162557
0.01733479 0.010494988 0.020925432 0.0029252064 -0.008177042 0.02132008 -0.012807487 -0.020635378
0.0017859315 0.0033980438 0.014245598 0.0017258874 0.002687406 0.008264677 -0.015255123 -0.016555041
-0.006673324 0.0013384413 -0.008919205 -0.012132174 0.00045021274 0.022728935 0.01819184 -0.007874652
-0.0073950575 -0.021518564 0.005372084 -0.021688944 0.011004265 0.008568132 0.0029379867 0.00023397143
0.011522673 -0.004642324 0.015410662 0.010978117 0.0061603906 0.008337643 -0.024184538 -0.00085277593
-0.016901856 -0.007819345 -0.0102825565 0.023127498 -0.018470211 -0.00993879 0.007471329 -0.013355713
-0.0026375088 -0.016241554 -0.0006734019 0.016709551 0.017210044 -0.002781623 -0.0128389355 0.007442924
0.0020555488 0.010324067 0.010751986 -0.009912369 0.020856716 -0.020614825 0.0054736673 -0.012055469
-0.015403546 0.017199472 0.014511361 0.009519078 -0.0057694684 -0.01345478 -0.011965924 -0.00828619
-7.874996e-05 0.017339153 0.0039894315 -0.008751562 0.017648896 -0.012094119 0.015265099 0.004838847
-0.007665527 0.0056416257 -0.019083725 0.020879045 0.008992931 0.018304784 0.010622114 0.013575294
0.023462951 0.0004123832 0.0010232566 -0.014785068 0.013904722 0.007075109 -0.020626662 0.013071285
-0.0070587103 0.0040471554 -0.008976128 0.025542194 0.008737747 0.01622699 -0.022166474 -0.0116238
0.0063485242 -0.0020001575 -0.016045345 0.004195874 -0.008490264 -0.0068844114 0.009304318 0.0005278227
0.022651002 -0.0056926487 0.00032543117 0.011861462 -0.017177721 0.0124767525 -0.0143286865 -0.016923754
-0.01685764 0.017885178 -0.016712738 0.019339053 -0.015793292 0.015163715 -0.018855743 -0.023104614
0.018993268 0.008375927 0.0024023335 -0.02253113 0.012466951 0.01621641 -0.008962688 -0.0017216789
0.011709453 0.009358362 0.00849942 0.007020353 -0.014366359 0.009835514 0.008387365 0.009981997
-0.018729769 0.016673379 -0.019677501 0.014731707 0.011176512 0.0008572526 0.015598623 -0.012951863

base_model.model.model.layers.1.self_attn.q_proj.lora_B.weight f4 [2048, 1]
00000000: 2fc3 d7ba bf27 8d3a f696 1c39 2354 493b
00000010: 4e48 af3b f4b4 a5bb 76b0 c53a 00bd 52b7
00000020: 6367 89ba c6fc 16bb 3e49 603b 0923 7d3b
00000030: 4d88 c33a ea71 953a 4e78 4a3b 87cc 093b
00000040: d50f 86ba 8ed5 ef3a 0041 2cba 43b8 06bb
00000050: 585a 31bb a22f 8abb 2f0b 113a 71eb 9dbb
00000060: 4288 c93b e4fd 3c3b 4049 163b 80fd 76b9
00000070: cb25 1fbb 4c55 363b 7608 9ebb 3c52 1139
00000080: b4b8 a43b 9089 01bb fc42 c03a c76e d5ba
00000090: 8f14 3bbb 61c7 483b 94b5 e6b9 f77c 79bb
000000a0: 258c 5e3b c2dc 973b 3e46 8ebb a73e 8fbb
000000b0: 2174 d53a fe9e de3a b157 933a 07d2 133b
000000c0: 37cd 49bb 822b 81bb 2285 503b a763 87bb
000000d0: 0412 533a 7d3a 393b 78d8 763b 9ea9 64bb
000000e0: 6d97 9f3a 8af5 bdbb 322c c1bb 0efc 5dbb
000000f0: c684 fc39 3ac1 153a 19a7 98bb eb0d 52b9
00000100: 8a72 a63b cd29 44bc e659 afba a65f b93b
00000110: 5e52 153b 773d 11bc c762 e53b 7d07 d239
00000120: ca7d ddbb 3aa7 c0bb dfd2 f939 92ac 0f3b
00000130: 57f8 15bb b493 e3ba 8272 a53b 10bc 043c
00000140: 16f8 22bc 8462 ab3b 7a01 b4bb ac8e d2bb
00000150: f506 1dbc 258e 4d3a 0183 59bb eda8 fd3a
00000160: f54d 39bb 05f9 d1bb ae0d 8eb9 8aef fabb
00000170: 7183 143b 58ea 55bb ebbc 3c3b f1c8 26bb
00000180: 6876 d13b 45c6 25bc a98b 7d3b 04b0 99bb
00000190: 1da1 043c 5c15 2dbc ff30 50bb 987d fcb9
000001a0: 9230 153a 530f 203b 5661 cd3b 3425 54bb
000001b0: 259c 1e3c e906 e0bb c63e 3ebb e701 ee3a
000001c0: d19b 86ba 345a 2dbb 7ef2 823a e3c3 72bb
000001d0: 79b4 933b 5ac7 2bbb cd0c 853b c37f e93b
000001e0: 72f0 e1bb 83b7 5a3b 35dd 4d39 15e7 5f3b
000001f0: 38a9 2a3b 65bb f73b 6185 a63b 9faf 8f3b
00000200: 80c6 723b 3e62 6fbb 57e8 bb38 e613 a33b
00000210: be92 903b c407 a3bb 975b f33a 6330 a93b
00000220: a308 50bb a225 a5bb a708 9c3b ebb5 893a
00000230: 22b0 633b 5d75 cbba e52b 803b 77be 343b
00000240: a2bb c3bb 9531 9a3b 8914 36bb 64a8 02bb
00000250: 7100 e5bb ee6f 78bb ad6f ff39 9b24 4ebb
00000260: f7c9 543b 7ca7 feba 41f6 283b bf52 97ba
00000270: 1b49 f9ba 8852 cbb9 1d5c 0b3a 30d4 eab9
00000280: 305a b43b 78e1 c1bb 0289 343b 0a30 03ba
00000290: 27b1 533b fcf6 55bb b1f9 63bb b478 f0ba
000002a0: 0b2a 403b 56d9 4f3b b580 0dbb a1f5 ecbb
000002b0: 2196 b63b eeef 5f3b 2452 613b 2fcf b43a
000002c0: d053 7138 e9bf be3a af3f 133b 6d26 cdba
000002d0: c0dd 1038 005f 923b f2d8 af3b ccbd 8bba
000002e0: db8a e6b9 6049 5abb eedb 2abb d000 dcba
000002f0: 566e 6abb 3cf0 45b9 e786 3d3a e221 87ba
00000300: 1cd0 fbb9 0c0a fc3a 24ba 67bb fc98 fdba
00000310: 8435 44bb fa7d e03a 3077 83ba 8fa6 d039
00000320: 8c8c 823b 62ee 553a 3df0 b73a 6ada 53bb
00000330: b1b2 d9b9 0867 d83a 9b5a 093b bdbc 9dbb
00000340: 9411 53ba 2d07 6339 c337 18b9 50ab 243b
00000350: a0dc fe3b 1a6e 97bb 4adf ef3a 63fc 4cbb
00000360: b312 163b 0e0b 833b cb67 b6bb 2276 ed3a
00000370: d17b f439 5d18 293a 289e e4bb 8b76 683b
00000380: 81e5 e03a 0791 16bb e305 6c3a cf28 a939
00000390: cfaa 92b9 b2c0 6f3a aeb0 31ba 82b7 363a
000003a0: 56c5 653b 0c3b d0ba f826 f9bb f4c1 11bb
000003b0: 5d71 71bb cf0d 013b cee7 5fba 4d47 91bb
000003c0: e783 b7ba 2d19 5cba 9f70 6a3b a161 7e3a
000003d0: 3363 f23a ed0b af3a c3ea 90ba 3380 c9bb
000003e0: ac25 293b bf2b 40bb 58e4 0939 42bf baba
000003f0: 0ff5 803a fef8 45bb 450e 13bb 0beb 003b
-0.0016461367 0.0010769292 0.00014933557 0.0030720315 0.0053491956 -0.0050569717 0.0015082497 -1.256098e-05
-0.0010483082 -0.0023038848 0.0034223343 0.003862562 0.001491794 0.0011401747 0.003089446 0.0021026449
-0.0010228107 0.0018297897 -0.0006570965 -0.0020556606 -0.0027061906 -0.004217104 0.00055329775 -0.0048193266
0.0061502764 0.0028837854 0.0022931844 -0.00023554824 -0.0024284 0.0027821837 -0.004822786 0.00013858912
0.005026901 -0.0019765832 0.00146684 -0.0016283625 -0.002854619 0.0030636417 -0.00044004305 -0.003806887
0.0033958044 0.0046344707 -0.0043418696 -0.0043714824 0.001628522 0.0016984639 0.0011241344 0.0022555606
-0.0030792484 -0.003941954 0.0031817635 -0.0041317525 0.0008051696 0.0028263621 0.0037665647 -0.0034891139
0.0012175866 -0.005797093 -0.005895161 -0.003387216 0.0004816411 0.0005712692 -0.0046585915 -0.00020032345
0.005079572 -0.011972857 -0.0013378232 0.005657154 0.002278469 -0.008864752 0.0070003006 0.000400599
-0.00675938 -0.00587931 0.00047650092 0.0021922928 -0.0022883618 -0.0017362745 0.005049051 0.008101478
-0.009946844 0.00523025 -0.00549334 -0.006425699 -0.009584178 0.00078413106 -0.0033189657 0.0019352712
-0.0028275226 -0.0064078593 -0.00027094543 -0.00765795 0.0022661353 -0.00326409 0.0028799127 -0.002544936
0.006392289 -0.010118072 0.003868798 -0.004690172 0.008095053 -0.0105641745 -0.0031767485 -0.0004815876
0.00056911365 0.0024423196 0.006267707 -0.0032370808 0.009680782 -0.0068367613 -0.0029029115 0.0018158526
-0.0010269826 -0.002645147 0.0009990481 -0.0037043027 0.004507598 -0.0026211352 0.004060364 0.007125826
-0.0068951184 0.0033373542 0.0001963273 0.0034164835 0.0026040804 0.007560181 0.005081818 0.0043849493
0.0037044585 -0.0036527063 8.9601315e-05 0.0049767373 0.0044120243 -0.004975291 0.0018566725 0.005163239
-0.003174343 -0.0050398866 0.0047617736 0.0010506486 0.0034742435 -0.0015522648 0.0039114826 0.0027579346
-0.0059732953 0.0047056177 -0.0027783236 -0.0019936794 -0.006988578 -0.0037908512 0.00048720595 -0.0031454924
0.0032469013 -0.0019428576 0.0025781544 -0.0011545046 -0.001901898 -0.00038780668 0.0005316155 -0.0004479005
0.0055039153 -0.0059167705 0.0027547483 -0.0005004412 0.0032301636 -0.0032648435 -0.003478628 -0.0018346519
0.0029321935 0.0031715236 -0.0021591608 -0.0072314297 0.005572096 0.003417011 0.0034381235 0.0013794656
5.7536934e-05 0.0014553043 0.0022468378 -0.001565171 3.4538796e-05 0.0044668913 0.005366438 -0.0010661422
-0.00043972474 -0.0033307895 -0.002607103 -0.001678491 -0.0035771332 -0.00018876878 0.000722988 -0.001030978
-0.00048029504 0.0019229068 -0.0035358751 -0.0019347961 -0.0029939124 0.0017127388 -0.0010030027 0.00039796947
0.0039840396 0.0008160827 0.0014033389 -0.003232623 -0.000415226 0.0016510198 0.0020958546 -0.004813759
-0.00080516306 0.0002165108 -0.00014516622 0.0025126524 0.0077777654 -0.0046212794 0.0018300798 -0.0031278364
0.002289933 0.0039991206 -0.0055665723 0.0018116871 0.00046631557 0.0006450469 -0.0069768615 0.0035471048
0.0017158241 -0.0022974627 0.0009003563 0.00032264597 -0.00027974552 0.00091458403 -0.00067783415 0.0006970094
0.0035060248 -0.0015886738 -0.0076035224 -0.002224085 -0.0036841251 0.0019692068 -0.00085413165 -0.0044335485
-0.0014001102 -0.00083960855 0.0035772694 0.0009703879 0.0018492698 0.0013354995 -0.0011056293 -0.0061493157
0.0025809808 -0.002932295 0.00013150403 -0.0014247673 0.0009838658 -0.0030208225 -0.0022438925 0.0019671347

base_model.model.model.layers.1.self_attn.v_proj.lora_A.weight f4 [1, 2048]
00000000: 0d60 babc 3ddf deba 0f36 e13b 5144 46bc
00000010: 1a6f dabb 24c4 723c 23e0 66bb a01d 6b3c
00000020: 85e9 c83c 1c49 aebc 0eb9 1a3c 428c 0bbc
00000030: 0c60 413b 7ed1 873c 72e6 573c da32 e33b
00000040: 2d47 213b 8c39 a5bb eeb0 f2bb a06f f13a
00000050: 6221 e23c af52 723b 58d0 a0bc a47c 67bc
00000060: c255 03bc dbee 533c 518b 0abc 5a21 1bbb
00000070: a0c0 5dbc d229 08bc afde d1bb 2884 7f3c
00000080: 8f54 ad3b 0b80 a93c a7b4 80bb 48a6 2f3c
00000090: c5d3 223b 3b78 713c 5679 cdbb c8da a13c
000000a0: 16da 17ba bdf1 42bc e36a ef3a 903f 353c
000000b0: 14e9 98bc 7fa8 22bc 9f9c 88bc 7aef 713c
000000c0: 932d 653b 70d4 483c 63be bebc 75de ca3c
000000d0: 442a 8c3c 9900 ae3c 3660 88bc 1b54 b83c
000000e0: bed2 efbb 3447 67bc 84a4 e7bb 5252 463c
000000f0: 3951 bebb ee12 093c 36e5 e93b caec d13b
00000100: fbdd ae3c 0989 8e3c 3878 123c 27a9 533c
00000110: f868 d33c 0c29 833b 9641 873c 5f76 b93c
00000120: 6e76 a13b fa7d 49bc b355 7a3c b0e9 bc3b
00000130: 656e 633b b1b5 a1bb 068c abbc 8d35 82bc
00000140: 0c9e adbb 144f 74bc b1fc 7cbc 5f88 303c
00000150: a6dd 243c 2f53 bbba 56bd 3ebc 7826 c9bc
00000160: 9195 6bbb 52a6 77bb ead2 a8bb bad7 bc3c
00000170: 5bc7 71bc 471b 55b9 5d66 86bc 44e0 d93b
00000180: 0aac ccbb 4a57 b23b fb33 5b3c 8c3f 883c
00000190: f87b 103b 3556 4f3c b835 6bbb f7af 48bb
000001a0: b06c fb3b c8b3 adbc 724a 5bbc 0c23 0b3a
000001b0: c287 79bb b5c9 183c ae0e 88bc 73b6 e23b
000001c0: 2810 73bb 48e6 acbc b0fc 03bc ff35 343b
000001d0: 4fc0 07bc 5ba8 a03c 52de 0fbc c48e 1dbb
000001e0: 3144 ef3b 4506 0dbc 4544 b03b c298 663c
000001f0: cb2d 353b 8122 d3bb b816 b93c 2bb5 953b
00000200: f9ca 813c 34b7 d63b 8dca 3fbc 0281 5ebc
00000210: 9766 0bbc 4f7a acbc 36b9 8bbc 1f19 7c3c
00000220: 9b27 e2ba b72d 4a3b 4864 94bc a64a 723c
00000230: 5f17 693c 8514 9c3c ba13 abbc 7ddc 293b
00000240: 90ce 58bc 5dac 643c 7e07 a33c fe9d 45bc
00000250: da5a a3bc 001b 71bc 3a6e e23b 1d49 6a3c
00000260: a136 7e3c e3c1 a4b9 dd1e 4a3c 8762 753c
00000270: 466b 21bc b694 d1b9 21c7 b73b 44ca be3c
00000280: 4d04 8fbc 2b3a 263c 4467 333b 7fbf 983c
00000290: 34e5 72bc bcdd 933c 45d5 833c 9366 1d3b
000002a0: 3cdd aabb 4062 393c 0531 8dbc bd36 19bc
000002b0: 53f4 83bc 639f 623c 7455 973c c7f3 c43a
000002c0: 4890 a83b 6c96 8dbb 2f05 b83c cdcf 223c
000002d0: b5cb 643b 1890 273c deb8 aebc 48a3 fdbb
000002e0: caec 923c 50ce efbb badc 5c3c d98e f4bb
000002f0: bc89 953c 5fa8 c93c 6d3e 93bc eb48 a43c
00000300: d185 213b 6cfc 8c3b 26dc daba c3c9 9c3b
00000310: 46c0 dfba 84db b5bc 305f 9f3c 0295 7b3b
00000320: 4469 b0bb 61c4 fd3b d90a 013c 3802 8fbc
00000330: c031 e53c ef62 61bc 85a7 163c 7626 edbb
00000340: 4295 c7bc 1fee 5bbc 8c5f dbbb 719c 273b
00000350: 56d7 873c 9ef9 2cbc e2a9 be3c 7100 e83c
00000360: 9326 cc3b 92a1 00bc 6458 2d3c 4c98 e0bb
00000370: 3779 59bc c8f8 783c abe1 e03b 3527 9dbb
00000380: 73bd 9e3c 8463 75bb d59a c0bb 5023 593a
00000390: aec5 ff3c cb33 713c 7f8f 53bc 9ea4 47bc
000003a0: a29d b2bc bd67 c83c adab 6b3c 15fe 523c
000003b0: 07ef 6d3c db5f 47bc 4818 093c 2304 e2bb
000003c0: 0ef5 c5bb df53 d33a 605f 31bc d0d5 dc3c
000003d0: 1c7a db3b 0411 fb3b 4dcc 1abc ac2d d2bc
000003e0: 47aa 37bc 5040 513c 5b64 48bc f459 0bbc
000003f0: 47ed 9939 7f16 ab3c ee01 993c e7cd ab3c
-0.022750879 -0.0017003786 0.0068728994 -0.012101249 -0.0066660764 0.014817271 -0.003522881 0.014350325
0.024525413 -0.021275096 0.009443535 -0.008517327 0.0029506711 0.016579386 0.013177501 0.006933552
0.0024609074 -0.0050422605 -0.0074063456 0.0018420108 0.027603809 0.0036975553 -0.019630596 -0.014128838
-0.008016052 0.012935366 -0.008456067 -0.0023671002 -0.013534695 -0.008310752 -0.00640472 0.015595473
0.005289621 0.020690938 -0.0039277854 0.010720797 0.0024845463 0.014738138 -0.006270568 0.019757643
-0.000579269 -0.011898455 0.0018266108 0.011062518 -0.018665828 -0.009927868 -0.016676245 0.014766568
0.0034969791 0.01225768 -0.023284143 0.024764279 0.017109998 0.02124052 -0.01664744 0.022501042
-0.0073188236 -0.014116097 -0.0070691723 0.012104588 -0.0058080223 0.00836633 0.00713792 0.0064064013
0.021346083 0.017399328 0.008939795 0.012918747 0.025806889 0.004002696 0.016510766 0.022639452
0.004927448 -0.012298102 0.015279221 0.0057651624 0.0034703251 -0.0049349894 -0.020940792 -0.015894676
-0.0052983817 -0.014911432 -0.015441106 0.010774701 0.010062611 -0.0014291758 -0.011641821 -0.024554476
-0.0035947303 -0.0037788344 -0.005152096 0.023052085 -0.014757003 -0.00020323425 -0.016406232 0.006649049
-0.0062460946 0.0054425346 0.013379092 0.016631864 0.0022046547 0.012654831 -0.0035890173 -0.0030622461
0.0076728687 -0.02120389 -0.013384448 0.00053076516 -0.0038075303 0.009325434 -0.016608562 0.0069187223
-0.0037088487 -0.0211059 -0.008055851 0.0027498004 -0.008285596 0.019611528 -0.008781033 -0.0024041394
0.00730183 -0.008607452 0.005379232 0.014074506 0.0027645703 -0.006443322 0.022593841 0.004568716
0.015843855 0.0065526012 -0.011706007 -0.013580563 -0.008508346 -0.021054415 -0.017056089 0.015386849
-0.0017254235 0.0030850002 -0.018114224 0.014788305 0.0142267635 0.019052753 -0.02088343 0.0025918775
-0.013232842 0.01395711 0.019901033 -0.012061594 -0.019940782 -0.01471591 0.0069101127 0.014299658
0.015515954 -0.00031424974 0.01233646 0.014977104 -0.009852236 -0.00039974385 0.005608455 0.023289807
-0.017458105 0.010145704 0.0027374784 0.018646 -0.014825154 0.018050067 0.016092906 0.0024017438
-0.0052143615 0.0113149285 -0.017235288 -0.0093514295 -0.016107714 0.013831946 0.018473364 0.0015026265
0.005144153 -0.00432091 0.02246341 0.009937239 0.0034911458 0.010227226 -0.021328386 -0.007740412
0.017935175 -0.0073182955 0.01348036 -0.007463318 0.018254153 0.024616418 -0.017974103 0.020054301
0.0024646411 0.004302552 -0.001669769 0.004784794 -0.0017070852 -0.0221994 0.019454569 0.0038388376
-0.0053836424 0.0077443575 0.007876121 -0.017457113 0.027977824 -0.013756498 0.009195213 -0.007237251
-0.024363164 -0.013423472 -0.0066947397 0.0025575424 0.016582172 -0.01055756 0.023274366 0.028320523
0.0062301843 -0.007851021 0.010580156 -0.0068540927 -0.013273529 0.015196033 0.006862839 -0.0047959336
0.019377446 -0.003744335 -0.0058778324 0.0008283155 0.03122219 0.014721821 -0.01291263 -0.012185244
-0.02180368 0.024463529 0.014384192 0.012877961 0.014522321 -0.01216885 0.0083676055 -0.006897466
-0.0060411757 0.0016123018 -0.010825962 0.026957422 0.006697906 0.0076619405 -0.009448123 -0.025656544
-0.011210031 0.012771681 -0.012230958 -0.008505333 0.0002935922 0.02088475 0.018677678 0.020972205
